{"class_name": "Sequential", "keras_version": "2.1.6-tf", "config": {"layers": [{"class_name": "Model", "config": {"layers": [{"class_name": "InputLayer", "inbound_nodes": [], "config": {"dtype": "float32", "batch_input_shape": [null, null, null, 3], "name": "input_1", "sparse": false}, "name": "input_1"}, {"class_name": "ZeroPadding2D", "inbound_nodes": [[["input_1", 0, 0, {}]]], "config": {"padding": [[3, 3], [3, 3]], "dtype": "float32", "trainable": true, "name": "conv1_pad", "data_format": "channels_last"}, "name": "conv1_pad"}, {"class_name": "Conv2D", "inbound_nodes": [[["conv1_pad", 0, 0, {}]]], "config": {"kernel_initializer": {"class_name": "VarianceScaling", "config": {"dtype": "float32", "distribution": "truncated_normal", "scale": 2.0, "seed": null, "mode": "fan_in"}}, "name": "conv1", "kernel_constraint": null, "bias_regularizer": null, "bias_constraint": null, "dtype": "float32", "activation": "linear", "trainable": true, "data_format": "channels_last", "padding": "valid", "strides": [2, 2], "dilation_rate": [1, 1], "kernel_regularizer": null, "filters": 64, "bias_initializer": {"class_name": "Zeros", "config": {"dtype": "float32"}}, "use_bias": true, "activity_regularizer": null, "kernel_size": [7, 7]}, "name": "conv1"}, {"class_name": "BatchNormalization", "inbound_nodes": [[["conv1", 0, 0, {}]]], "config": {"gamma_initializer": {"class_name": "Ones", "config": {"dtype": "float32"}}, "moving_mean_initializer": {"class_name": "Zeros", "config": {"dtype": "float32"}}, "name": "bn_conv1", "gamma_regularizer": null, "dtype": "float32", "trainable": true, "center": true, "moving_variance_initializer": {"class_name": "Ones", "config": {"dtype": "float32"}}, "beta_initializer": {"class_name": "Zeros", "config": {"dtype": "float32"}}, "scale": true, "epsilon": 0.001, "gamma_constraint": null, "beta_constraint": null, "beta_regularizer": null, "momentum": 0.99, "axis": [3]}, "name": "bn_conv1"}, {"class_name": "Activation", "inbound_nodes": [[["bn_conv1", 0, 0, {}]]], "config": {"dtype": "float32", "activation": "relu", "trainable": true, "name": "activation"}, "name": "activation"}, {"class_name": "ZeroPadding2D", "inbound_nodes": [[["activation", 0, 0, {}]]], "config": {"padding": [[1, 1], [1, 1]], "dtype": "float32", "trainable": true, "name": "pool1_pad", "data_format": "channels_last"}, "name": "pool1_pad"}, {"class_name": "MaxPooling2D", "inbound_nodes": [[["pool1_pad", 0, 0, {}]]], "config": {"name": "max_pooling2d", "dtype": "float32", "trainable": true, "data_format": "channels_last", "pool_size": [3, 3], "padding": "valid", "strides": [2, 2]}, "name": "max_pooling2d"}, {"class_name": "Conv2D", "inbound_nodes": [[["max_pooling2d", 0, 0, {}]]], "config": {"kernel_initializer": {"class_name": "VarianceScaling", "config": {"dtype": "float32", "distribution": "truncated_normal", "scale": 2.0, "seed": null, "mode": "fan_in"}}, "name": "res2a_branch2a", "kernel_constraint": null, "bias_regularizer": null, "bias_constraint": null, "dtype": "float32", "activation": "linear", "trainable": true, "data_format": "channels_last", "padding": "valid", "strides": [1, 1], "dilation_rate": [1, 1], "kernel_regularizer": null, "filters": 64, "bias_initializer": {"class_name": "Zeros", "config": {"dtype": "float32"}}, "use_bias": true, "activity_regularizer": null, "kernel_size": [1, 1]}, "name": "res2a_branch2a"}, {"class_name": "BatchNormalization", "inbound_nodes": [[["res2a_branch2a", 0, 0, {}]]], "config": {"gamma_initializer": {"class_name": "Ones", "config": {"dtype": "float32"}}, "moving_mean_initializer": {"class_name": "Zeros", "config": {"dtype": "float32"}}, "name": "bn2a_branch2a", "gamma_regularizer": null, "dtype": "float32", "trainable": true, "center": true, "moving_variance_initializer": {"class_name": "Ones", "config": {"dtype": "float32"}}, "beta_initializer": {"class_name": "Zeros", "config": {"dtype": "float32"}}, "scale": true, "epsilon": 0.001, "gamma_constraint": null, "beta_constraint": null, "beta_regularizer": null, "momentum": 0.99, "axis": [3]}, "name": "bn2a_branch2a"}, {"class_name": "Activation", "inbound_nodes": [[["bn2a_branch2a", 0, 0, {}]]], "config": {"dtype": "float32", "activation": "relu", "trainable": true, "name": "activation_1"}, "name": "activation_1"}, {"class_name": "Conv2D", "inbound_nodes": [[["activation_1", 0, 0, {}]]], "config": {"kernel_initializer": {"class_name": "VarianceScaling", "config": {"dtype": "float32", "distribution": "truncated_normal", "scale": 2.0, "seed": null, "mode": "fan_in"}}, "name": "res2a_branch2b", "kernel_constraint": null, "bias_regularizer": null, "bias_constraint": null, "dtype": "float32", "activation": "linear", "trainable": true, "data_format": "channels_last", "padding": "same", "strides": [1, 1], "dilation_rate": [1, 1], "kernel_regularizer": null, "filters": 64, "bias_initializer": {"class_name": "Zeros", "config": {"dtype": "float32"}}, "use_bias": true, "activity_regularizer": null, "kernel_size": [3, 3]}, "name": "res2a_branch2b"}, {"class_name": "BatchNormalization", "inbound_nodes": [[["res2a_branch2b", 0, 0, {}]]], "config": {"gamma_initializer": {"class_name": "Ones", "config": {"dtype": "float32"}}, "moving_mean_initializer": {"class_name": "Zeros", "config": {"dtype": "float32"}}, "name": "bn2a_branch2b", "gamma_regularizer": null, "dtype": "float32", "trainable": true, "center": true, "moving_variance_initializer": {"class_name": "Ones", "config": {"dtype": "float32"}}, "beta_initializer": {"class_name": "Zeros", "config": {"dtype": "float32"}}, "scale": true, "epsilon": 0.001, "gamma_constraint": null, "beta_constraint": null, "beta_regularizer": null, "momentum": 0.99, "axis": [3]}, "name": "bn2a_branch2b"}, {"class_name": "Activation", "inbound_nodes": [[["bn2a_branch2b", 0, 0, {}]]], "config": {"dtype": "float32", "activation": "relu", "trainable": true, "name": "activation_2"}, "name": "activation_2"}, {"class_name": "Conv2D", "inbound_nodes": [[["activation_2", 0, 0, {}]]], "config": {"kernel_initializer": {"class_name": "VarianceScaling", "config": {"dtype": "float32", "distribution": "truncated_normal", "scale": 2.0, "seed": null, "mode": "fan_in"}}, "name": "res2a_branch2c", "kernel_constraint": null, "bias_regularizer": null, "bias_constraint": null, "dtype": "float32", "activation": "linear", "trainable": true, "data_format": "channels_last", "padding": "valid", "strides": [1, 1], "dilation_rate": [1, 1], "kernel_regularizer": null, "filters": 256, "bias_initializer": {"class_name": "Zeros", "config": {"dtype": "float32"}}, "use_bias": true, "activity_regularizer": null, "kernel_size": [1, 1]}, "name": "res2a_branch2c"}, {"class_name": "Conv2D", "inbound_nodes": [[["max_pooling2d", 0, 0, {}]]], "config": {"kernel_initializer": {"class_name": "VarianceScaling", "config": {"dtype": "float32", "distribution": "truncated_normal", "scale": 2.0, "seed": null, "mode": "fan_in"}}, "name": "res2a_branch1", "kernel_constraint": null, "bias_regularizer": null, "bias_constraint": null, "dtype": "float32", "activation": "linear", "trainable": true, "data_format": "channels_last", "padding": "valid", "strides": [1, 1], "dilation_rate": [1, 1], "kernel_regularizer": null, "filters": 256, "bias_initializer": {"class_name": "Zeros", "config": {"dtype": "float32"}}, "use_bias": true, "activity_regularizer": null, "kernel_size": [1, 1]}, "name": "res2a_branch1"}, {"class_name": "BatchNormalization", "inbound_nodes": [[["res2a_branch2c", 0, 0, {}]]], "config": {"gamma_initializer": {"class_name": "Ones", "config": {"dtype": "float32"}}, "moving_mean_initializer": {"class_name": "Zeros", "config": {"dtype": "float32"}}, "name": "bn2a_branch2c", "gamma_regularizer": null, "dtype": "float32", "trainable": true, "center": true, "moving_variance_initializer": {"class_name": "Ones", "config": {"dtype": "float32"}}, "beta_initializer": {"class_name": "Zeros", "config": {"dtype": "float32"}}, "scale": true, "epsilon": 0.001, "gamma_constraint": null, "beta_constraint": null, "beta_regularizer": null, "momentum": 0.99, "axis": [3]}, "name": "bn2a_branch2c"}, {"class_name": "BatchNormalization", "inbound_nodes": [[["res2a_branch1", 0, 0, {}]]], "config": {"gamma_initializer": {"class_name": "Ones", "config": {"dtype": "float32"}}, "moving_mean_initializer": {"class_name": "Zeros", "config": {"dtype": "float32"}}, "name": "bn2a_branch1", "gamma_regularizer": null, "dtype": "float32", "trainable": true, "center": true, "moving_variance_initializer": {"class_name": "Ones", "config": {"dtype": "float32"}}, "beta_initializer": {"class_name": "Zeros", "config": {"dtype": "float32"}}, "scale": true, "epsilon": 0.001, "gamma_constraint": null, "beta_constraint": null, "beta_regularizer": null, "momentum": 0.99, "axis": [3]}, "name": "bn2a_branch1"}, {"class_name": "Add", "inbound_nodes": [[["bn2a_branch2c", 0, 0, {}], ["bn2a_branch1", 0, 0, {}]]], "config": {"dtype": "float32", "trainable": true, "name": "add"}, "name": "add"}, {"class_name": "Activation", "inbound_nodes": [[["add", 0, 0, {}]]], "config": {"dtype": "float32", "activation": "relu", "trainable": true, "name": "activation_3"}, "name": "activation_3"}, {"class_name": "Conv2D", "inbound_nodes": [[["activation_3", 0, 0, {}]]], "config": {"kernel_initializer": {"class_name": "VarianceScaling", "config": {"dtype": "float32", "distribution": "truncated_normal", "scale": 2.0, "seed": null, "mode": "fan_in"}}, "name": "res2b_branch2a", "kernel_constraint": null, "bias_regularizer": null, "bias_constraint": null, "dtype": "float32", "activation": "linear", "trainable": true, "data_format": "channels_last", "padding": "valid", "strides": [1, 1], "dilation_rate": [1, 1], "kernel_regularizer": null, "filters": 64, "bias_initializer": {"class_name": "Zeros", "config": {"dtype": "float32"}}, "use_bias": true, "activity_regularizer": null, "kernel_size": [1, 1]}, "name": "res2b_branch2a"}, {"class_name": "BatchNormalization", "inbound_nodes": [[["res2b_branch2a", 0, 0, {}]]], "config": {"gamma_initializer": {"class_name": "Ones", "config": {"dtype": "float32"}}, "moving_mean_initializer": {"class_name": "Zeros", "config": {"dtype": "float32"}}, "name": "bn2b_branch2a", "gamma_regularizer": null, "dtype": "float32", "trainable": true, "center": true, "moving_variance_initializer": {"class_name": "Ones", "config": {"dtype": "float32"}}, "beta_initializer": {"class_name": "Zeros", "config": {"dtype": "float32"}}, "scale": true, "epsilon": 0.001, "gamma_constraint": null, "beta_constraint": null, "beta_regularizer": null, "momentum": 0.99, "axis": [3]}, "name": "bn2b_branch2a"}, {"class_name": "Activation", "inbound_nodes": [[["bn2b_branch2a", 0, 0, {}]]], "config": {"dtype": "float32", "activation": "relu", "trainable": true, "name": "activation_4"}, "name": "activation_4"}, {"class_name": "Conv2D", "inbound_nodes": [[["activation_4", 0, 0, {}]]], "config": {"kernel_initializer": {"class_name": "VarianceScaling", "config": {"dtype": "float32", "distribution": "truncated_normal", "scale": 2.0, "seed": null, "mode": "fan_in"}}, "name": "res2b_branch2b", "kernel_constraint": null, "bias_regularizer": null, "bias_constraint": null, "dtype": "float32", "activation": "linear", "trainable": true, "data_format": "channels_last", "padding": "same", "strides": [1, 1], "dilation_rate": [1, 1], "kernel_regularizer": null, "filters": 64, "bias_initializer": {"class_name": "Zeros", "config": {"dtype": "float32"}}, "use_bias": true, "activity_regularizer": null, "kernel_size": [3, 3]}, "name": "res2b_branch2b"}, {"class_name": "BatchNormalization", "inbound_nodes": [[["res2b_branch2b", 0, 0, {}]]], "config": {"gamma_initializer": {"class_name": "Ones", "config": {"dtype": "float32"}}, "moving_mean_initializer": {"class_name": "Zeros", "config": {"dtype": "float32"}}, "name": "bn2b_branch2b", "gamma_regularizer": null, "dtype": "float32", "trainable": true, "center": true, "moving_variance_initializer": {"class_name": "Ones", "config": {"dtype": "float32"}}, "beta_initializer": {"class_name": "Zeros", "config": {"dtype": "float32"}}, "scale": true, "epsilon": 0.001, "gamma_constraint": null, "beta_constraint": null, "beta_regularizer": null, "momentum": 0.99, "axis": [3]}, "name": "bn2b_branch2b"}, {"class_name": "Activation", "inbound_nodes": [[["bn2b_branch2b", 0, 0, {}]]], "config": {"dtype": "float32", "activation": "relu", "trainable": true, "name": "activation_5"}, "name": "activation_5"}, {"class_name": "Conv2D", "inbound_nodes": [[["activation_5", 0, 0, {}]]], "config": {"kernel_initializer": {"class_name": "VarianceScaling", "config": {"dtype": "float32", "distribution": "truncated_normal", "scale": 2.0, "seed": null, "mode": "fan_in"}}, "name": "res2b_branch2c", "kernel_constraint": null, "bias_regularizer": null, "bias_constraint": null, "dtype": "float32", "activation": "linear", "trainable": true, "data_format": "channels_last", "padding": "valid", "strides": [1, 1], "dilation_rate": [1, 1], "kernel_regularizer": null, "filters": 256, "bias_initializer": {"class_name": "Zeros", "config": {"dtype": "float32"}}, "use_bias": true, "activity_regularizer": null, "kernel_size": [1, 1]}, "name": "res2b_branch2c"}, {"class_name": "BatchNormalization", "inbound_nodes": [[["res2b_branch2c", 0, 0, {}]]], "config": {"gamma_initializer": {"class_name": "Ones", "config": {"dtype": "float32"}}, "moving_mean_initializer": {"class_name": "Zeros", "config": {"dtype": "float32"}}, "name": "bn2b_branch2c", "gamma_regularizer": null, "dtype": "float32", "trainable": true, "center": true, "moving_variance_initializer": {"class_name": "Ones", "config": {"dtype": "float32"}}, "beta_initializer": {"class_name": "Zeros", "config": {"dtype": "float32"}}, "scale": true, "epsilon": 0.001, "gamma_constraint": null, "beta_constraint": null, "beta_regularizer": null, "momentum": 0.99, "axis": [3]}, "name": "bn2b_branch2c"}, {"class_name": "Add", "inbound_nodes": [[["bn2b_branch2c", 0, 0, {}], ["activation_3", 0, 0, {}]]], "config": {"dtype": "float32", "trainable": true, "name": "add_1"}, "name": "add_1"}, {"class_name": "Activation", "inbound_nodes": [[["add_1", 0, 0, {}]]], "config": {"dtype": "float32", "activation": "relu", "trainable": true, "name": "activation_6"}, "name": "activation_6"}, {"class_name": "Conv2D", "inbound_nodes": [[["activation_6", 0, 0, {}]]], "config": {"kernel_initializer": {"class_name": "VarianceScaling", "config": {"dtype": "float32", "distribution": "truncated_normal", "scale": 2.0, "seed": null, "mode": "fan_in"}}, "name": "res2c_branch2a", "kernel_constraint": null, "bias_regularizer": null, "bias_constraint": null, "dtype": "float32", "activation": "linear", "trainable": true, "data_format": "channels_last", "padding": "valid", "strides": [1, 1], "dilation_rate": [1, 1], "kernel_regularizer": null, "filters": 64, "bias_initializer": {"class_name": "Zeros", "config": {"dtype": "float32"}}, "use_bias": true, "activity_regularizer": null, "kernel_size": [1, 1]}, "name": "res2c_branch2a"}, {"class_name": "BatchNormalization", "inbound_nodes": [[["res2c_branch2a", 0, 0, {}]]], "config": {"gamma_initializer": {"class_name": "Ones", "config": {"dtype": "float32"}}, "moving_mean_initializer": {"class_name": "Zeros", "config": {"dtype": "float32"}}, "name": "bn2c_branch2a", "gamma_regularizer": null, "dtype": "float32", "trainable": true, "center": true, "moving_variance_initializer": {"class_name": "Ones", "config": {"dtype": "float32"}}, "beta_initializer": {"class_name": "Zeros", "config": {"dtype": "float32"}}, "scale": true, "epsilon": 0.001, "gamma_constraint": null, "beta_constraint": null, "beta_regularizer": null, "momentum": 0.99, "axis": [3]}, "name": "bn2c_branch2a"}, {"class_name": "Activation", "inbound_nodes": [[["bn2c_branch2a", 0, 0, {}]]], "config": {"dtype": "float32", "activation": "relu", "trainable": true, "name": "activation_7"}, "name": "activation_7"}, {"class_name": "Conv2D", "inbound_nodes": [[["activation_7", 0, 0, {}]]], "config": {"kernel_initializer": {"class_name": "VarianceScaling", "config": {"dtype": "float32", "distribution": "truncated_normal", "scale": 2.0, "seed": null, "mode": "fan_in"}}, "name": "res2c_branch2b", "kernel_constraint": null, "bias_regularizer": null, "bias_constraint": null, "dtype": "float32", "activation": "linear", "trainable": true, "data_format": "channels_last", "padding": "same", "strides": [1, 1], "dilation_rate": [1, 1], "kernel_regularizer": null, "filters": 64, "bias_initializer": {"class_name": "Zeros", "config": {"dtype": "float32"}}, "use_bias": true, "activity_regularizer": null, "kernel_size": [3, 3]}, "name": "res2c_branch2b"}, {"class_name": "BatchNormalization", "inbound_nodes": [[["res2c_branch2b", 0, 0, {}]]], "config": {"gamma_initializer": {"class_name": "Ones", "config": {"dtype": "float32"}}, "moving_mean_initializer": {"class_name": "Zeros", "config": {"dtype": "float32"}}, "name": "bn2c_branch2b", "gamma_regularizer": null, "dtype": "float32", "trainable": true, "center": true, "moving_variance_initializer": {"class_name": "Ones", "config": {"dtype": "float32"}}, "beta_initializer": {"class_name": "Zeros", "config": {"dtype": "float32"}}, "scale": true, "epsilon": 0.001, "gamma_constraint": null, "beta_constraint": null, "beta_regularizer": null, "momentum": 0.99, "axis": [3]}, "name": "bn2c_branch2b"}, {"class_name": "Activation", "inbound_nodes": [[["bn2c_branch2b", 0, 0, {}]]], "config": {"dtype": "float32", "activation": "relu", "trainable": true, "name": "activation_8"}, "name": "activation_8"}, {"class_name": "Conv2D", "inbound_nodes": [[["activation_8", 0, 0, {}]]], "config": {"kernel_initializer": {"class_name": "VarianceScaling", "config": {"dtype": "float32", "distribution": "truncated_normal", "scale": 2.0, "seed": null, "mode": "fan_in"}}, "name": "res2c_branch2c", "kernel_constraint": null, "bias_regularizer": null, "bias_constraint": null, "dtype": "float32", "activation": "linear", "trainable": true, "data_format": "channels_last", "padding": "valid", "strides": [1, 1], "dilation_rate": [1, 1], "kernel_regularizer": null, "filters": 256, "bias_initializer": {"class_name": "Zeros", "config": {"dtype": "float32"}}, "use_bias": true, "activity_regularizer": null, "kernel_size": [1, 1]}, "name": "res2c_branch2c"}, {"class_name": "BatchNormalization", "inbound_nodes": [[["res2c_branch2c", 0, 0, {}]]], "config": {"gamma_initializer": {"class_name": "Ones", "config": {"dtype": "float32"}}, "moving_mean_initializer": {"class_name": "Zeros", "config": {"dtype": "float32"}}, "name": "bn2c_branch2c", "gamma_regularizer": null, "dtype": "float32", "trainable": true, "center": true, "moving_variance_initializer": {"class_name": "Ones", "config": {"dtype": "float32"}}, "beta_initializer": {"class_name": "Zeros", "config": {"dtype": "float32"}}, "scale": true, "epsilon": 0.001, "gamma_constraint": null, "beta_constraint": null, "beta_regularizer": null, "momentum": 0.99, "axis": [3]}, "name": "bn2c_branch2c"}, {"class_name": "Add", "inbound_nodes": [[["bn2c_branch2c", 0, 0, {}], ["activation_6", 0, 0, {}]]], "config": {"dtype": "float32", "trainable": true, "name": "add_2"}, "name": "add_2"}, {"class_name": "Activation", "inbound_nodes": [[["add_2", 0, 0, {}]]], "config": {"dtype": "float32", "activation": "relu", "trainable": true, "name": "activation_9"}, "name": "activation_9"}, {"class_name": "Conv2D", "inbound_nodes": [[["activation_9", 0, 0, {}]]], "config": {"kernel_initializer": {"class_name": "VarianceScaling", "config": {"dtype": "float32", "distribution": "truncated_normal", "scale": 2.0, "seed": null, "mode": "fan_in"}}, "name": "res3a_branch2a", "kernel_constraint": null, "bias_regularizer": null, "bias_constraint": null, "dtype": "float32", "activation": "linear", "trainable": true, "data_format": "channels_last", "padding": "valid", "strides": [2, 2], "dilation_rate": [1, 1], "kernel_regularizer": null, "filters": 128, "bias_initializer": {"class_name": "Zeros", "config": {"dtype": "float32"}}, "use_bias": true, "activity_regularizer": null, "kernel_size": [1, 1]}, "name": "res3a_branch2a"}, {"class_name": "BatchNormalization", "inbound_nodes": [[["res3a_branch2a", 0, 0, {}]]], "config": {"gamma_initializer": {"class_name": "Ones", "config": {"dtype": "float32"}}, "moving_mean_initializer": {"class_name": "Zeros", "config": {"dtype": "float32"}}, "name": "bn3a_branch2a", "gamma_regularizer": null, "dtype": "float32", "trainable": true, "center": true, "moving_variance_initializer": {"class_name": "Ones", "config": {"dtype": "float32"}}, "beta_initializer": {"class_name": "Zeros", "config": {"dtype": "float32"}}, "scale": true, "epsilon": 0.001, "gamma_constraint": null, "beta_constraint": null, "beta_regularizer": null, "momentum": 0.99, "axis": [3]}, "name": "bn3a_branch2a"}, {"class_name": "Activation", "inbound_nodes": [[["bn3a_branch2a", 0, 0, {}]]], "config": {"dtype": "float32", "activation": "relu", "trainable": true, "name": "activation_10"}, "name": "activation_10"}, {"class_name": "Conv2D", "inbound_nodes": [[["activation_10", 0, 0, {}]]], "config": {"kernel_initializer": {"class_name": "VarianceScaling", "config": {"dtype": "float32", "distribution": "truncated_normal", "scale": 2.0, "seed": null, "mode": "fan_in"}}, "name": "res3a_branch2b", "kernel_constraint": null, "bias_regularizer": null, "bias_constraint": null, "dtype": "float32", "activation": "linear", "trainable": true, "data_format": "channels_last", "padding": "same", "strides": [1, 1], "dilation_rate": [1, 1], "kernel_regularizer": null, "filters": 128, "bias_initializer": {"class_name": "Zeros", "config": {"dtype": "float32"}}, "use_bias": true, "activity_regularizer": null, "kernel_size": [3, 3]}, "name": "res3a_branch2b"}, {"class_name": "BatchNormalization", "inbound_nodes": [[["res3a_branch2b", 0, 0, {}]]], "config": {"gamma_initializer": {"class_name": "Ones", "config": {"dtype": "float32"}}, "moving_mean_initializer": {"class_name": "Zeros", "config": {"dtype": "float32"}}, "name": "bn3a_branch2b", "gamma_regularizer": null, "dtype": "float32", "trainable": true, "center": true, "moving_variance_initializer": {"class_name": "Ones", "config": {"dtype": "float32"}}, "beta_initializer": {"class_name": "Zeros", "config": {"dtype": "float32"}}, "scale": true, "epsilon": 0.001, "gamma_constraint": null, "beta_constraint": null, "beta_regularizer": null, "momentum": 0.99, "axis": [3]}, "name": "bn3a_branch2b"}, {"class_name": "Activation", "inbound_nodes": [[["bn3a_branch2b", 0, 0, {}]]], "config": {"dtype": "float32", "activation": "relu", "trainable": true, "name": "activation_11"}, "name": "activation_11"}, {"class_name": "Conv2D", "inbound_nodes": [[["activation_11", 0, 0, {}]]], "config": {"kernel_initializer": {"class_name": "VarianceScaling", "config": {"dtype": "float32", "distribution": "truncated_normal", "scale": 2.0, "seed": null, "mode": "fan_in"}}, "name": "res3a_branch2c", "kernel_constraint": null, "bias_regularizer": null, "bias_constraint": null, "dtype": "float32", "activation": "linear", "trainable": true, "data_format": "channels_last", "padding": "valid", "strides": [1, 1], "dilation_rate": [1, 1], "kernel_regularizer": null, "filters": 512, "bias_initializer": {"class_name": "Zeros", "config": {"dtype": "float32"}}, "use_bias": true, "activity_regularizer": null, "kernel_size": [1, 1]}, "name": "res3a_branch2c"}, {"class_name": "Conv2D", "inbound_nodes": [[["activation_9", 0, 0, {}]]], "config": {"kernel_initializer": {"class_name": "VarianceScaling", "config": {"dtype": "float32", "distribution": "truncated_normal", "scale": 2.0, "seed": null, "mode": "fan_in"}}, "name": "res3a_branch1", "kernel_constraint": null, "bias_regularizer": null, "bias_constraint": null, "dtype": "float32", "activation": "linear", "trainable": true, "data_format": "channels_last", "padding": "valid", "strides": [2, 2], "dilation_rate": [1, 1], "kernel_regularizer": null, "filters": 512, "bias_initializer": {"class_name": "Zeros", "config": {"dtype": "float32"}}, "use_bias": true, "activity_regularizer": null, "kernel_size": [1, 1]}, "name": "res3a_branch1"}, {"class_name": "BatchNormalization", "inbound_nodes": [[["res3a_branch2c", 0, 0, {}]]], "config": {"gamma_initializer": {"class_name": "Ones", "config": {"dtype": "float32"}}, "moving_mean_initializer": {"class_name": "Zeros", "config": {"dtype": "float32"}}, "name": "bn3a_branch2c", "gamma_regularizer": null, "dtype": "float32", "trainable": true, "center": true, "moving_variance_initializer": {"class_name": "Ones", "config": {"dtype": "float32"}}, "beta_initializer": {"class_name": "Zeros", "config": {"dtype": "float32"}}, "scale": true, "epsilon": 0.001, "gamma_constraint": null, "beta_constraint": null, "beta_regularizer": null, "momentum": 0.99, "axis": [3]}, "name": "bn3a_branch2c"}, {"class_name": "BatchNormalization", "inbound_nodes": [[["res3a_branch1", 0, 0, {}]]], "config": {"gamma_initializer": {"class_name": "Ones", "config": {"dtype": "float32"}}, "moving_mean_initializer": {"class_name": "Zeros", "config": {"dtype": "float32"}}, "name": "bn3a_branch1", "gamma_regularizer": null, "dtype": "float32", "trainable": true, "center": true, "moving_variance_initializer": {"class_name": "Ones", "config": {"dtype": "float32"}}, "beta_initializer": {"class_name": "Zeros", "config": {"dtype": "float32"}}, "scale": true, "epsilon": 0.001, "gamma_constraint": null, "beta_constraint": null, "beta_regularizer": null, "momentum": 0.99, "axis": [3]}, "name": "bn3a_branch1"}, {"class_name": "Add", "inbound_nodes": [[["bn3a_branch2c", 0, 0, {}], ["bn3a_branch1", 0, 0, {}]]], "config": {"dtype": "float32", "trainable": true, "name": "add_3"}, "name": "add_3"}, {"class_name": "Activation", "inbound_nodes": [[["add_3", 0, 0, {}]]], "config": {"dtype": "float32", "activation": "relu", "trainable": true, "name": "activation_12"}, "name": "activation_12"}, {"class_name": "Conv2D", "inbound_nodes": [[["activation_12", 0, 0, {}]]], "config": {"kernel_initializer": {"class_name": "VarianceScaling", "config": {"dtype": "float32", "distribution": "truncated_normal", "scale": 2.0, "seed": null, "mode": "fan_in"}}, "name": "res3b_branch2a", "kernel_constraint": null, "bias_regularizer": null, "bias_constraint": null, "dtype": "float32", "activation": "linear", "trainable": true, "data_format": "channels_last", "padding": "valid", "strides": [1, 1], "dilation_rate": [1, 1], "kernel_regularizer": null, "filters": 128, "bias_initializer": {"class_name": "Zeros", "config": {"dtype": "float32"}}, "use_bias": true, "activity_regularizer": null, "kernel_size": [1, 1]}, "name": "res3b_branch2a"}, {"class_name": "BatchNormalization", "inbound_nodes": [[["res3b_branch2a", 0, 0, {}]]], "config": {"gamma_initializer": {"class_name": "Ones", "config": {"dtype": "float32"}}, "moving_mean_initializer": {"class_name": "Zeros", "config": {"dtype": "float32"}}, "name": "bn3b_branch2a", "gamma_regularizer": null, "dtype": "float32", "trainable": true, "center": true, "moving_variance_initializer": {"class_name": "Ones", "config": {"dtype": "float32"}}, "beta_initializer": {"class_name": "Zeros", "config": {"dtype": "float32"}}, "scale": true, "epsilon": 0.001, "gamma_constraint": null, "beta_constraint": null, "beta_regularizer": null, "momentum": 0.99, "axis": [3]}, "name": "bn3b_branch2a"}, {"class_name": "Activation", "inbound_nodes": [[["bn3b_branch2a", 0, 0, {}]]], "config": {"dtype": "float32", "activation": "relu", "trainable": true, "name": "activation_13"}, "name": "activation_13"}, {"class_name": "Conv2D", "inbound_nodes": [[["activation_13", 0, 0, {}]]], "config": {"kernel_initializer": {"class_name": "VarianceScaling", "config": {"dtype": "float32", "distribution": "truncated_normal", "scale": 2.0, "seed": null, "mode": "fan_in"}}, "name": "res3b_branch2b", "kernel_constraint": null, "bias_regularizer": null, "bias_constraint": null, "dtype": "float32", "activation": "linear", "trainable": true, "data_format": "channels_last", "padding": "same", "strides": [1, 1], "dilation_rate": [1, 1], "kernel_regularizer": null, "filters": 128, "bias_initializer": {"class_name": "Zeros", "config": {"dtype": "float32"}}, "use_bias": true, "activity_regularizer": null, "kernel_size": [3, 3]}, "name": "res3b_branch2b"}, {"class_name": "BatchNormalization", "inbound_nodes": [[["res3b_branch2b", 0, 0, {}]]], "config": {"gamma_initializer": {"class_name": "Ones", "config": {"dtype": "float32"}}, "moving_mean_initializer": {"class_name": "Zeros", "config": {"dtype": "float32"}}, "name": "bn3b_branch2b", "gamma_regularizer": null, "dtype": "float32", "trainable": true, "center": true, "moving_variance_initializer": {"class_name": "Ones", "config": {"dtype": "float32"}}, "beta_initializer": {"class_name": "Zeros", "config": {"dtype": "float32"}}, "scale": true, "epsilon": 0.001, "gamma_constraint": null, "beta_constraint": null, "beta_regularizer": null, "momentum": 0.99, "axis": [3]}, "name": "bn3b_branch2b"}, {"class_name": "Activation", "inbound_nodes": [[["bn3b_branch2b", 0, 0, {}]]], "config": {"dtype": "float32", "activation": "relu", "trainable": true, "name": "activation_14"}, "name": "activation_14"}, {"class_name": "Conv2D", "inbound_nodes": [[["activation_14", 0, 0, {}]]], "config": {"kernel_initializer": {"class_name": "VarianceScaling", "config": {"dtype": "float32", "distribution": "truncated_normal", "scale": 2.0, "seed": null, "mode": "fan_in"}}, "name": "res3b_branch2c", "kernel_constraint": null, "bias_regularizer": null, "bias_constraint": null, "dtype": "float32", "activation": "linear", "trainable": true, "data_format": "channels_last", "padding": "valid", "strides": [1, 1], "dilation_rate": [1, 1], "kernel_regularizer": null, "filters": 512, "bias_initializer": {"class_name": "Zeros", "config": {"dtype": "float32"}}, "use_bias": true, "activity_regularizer": null, "kernel_size": [1, 1]}, "name": "res3b_branch2c"}, {"class_name": "BatchNormalization", "inbound_nodes": [[["res3b_branch2c", 0, 0, {}]]], "config": {"gamma_initializer": {"class_name": "Ones", "config": {"dtype": "float32"}}, "moving_mean_initializer": {"class_name": "Zeros", "config": {"dtype": "float32"}}, "name": "bn3b_branch2c", "gamma_regularizer": null, "dtype": "float32", "trainable": true, "center": true, "moving_variance_initializer": {"class_name": "Ones", "config": {"dtype": "float32"}}, "beta_initializer": {"class_name": "Zeros", "config": {"dtype": "float32"}}, "scale": true, "epsilon": 0.001, "gamma_constraint": null, "beta_constraint": null, "beta_regularizer": null, "momentum": 0.99, "axis": [3]}, "name": "bn3b_branch2c"}, {"class_name": "Add", "inbound_nodes": [[["bn3b_branch2c", 0, 0, {}], ["activation_12", 0, 0, {}]]], "config": {"dtype": "float32", "trainable": true, "name": "add_4"}, "name": "add_4"}, {"class_name": "Activation", "inbound_nodes": [[["add_4", 0, 0, {}]]], "config": {"dtype": "float32", "activation": "relu", "trainable": true, "name": "activation_15"}, "name": "activation_15"}, {"class_name": "Conv2D", "inbound_nodes": [[["activation_15", 0, 0, {}]]], "config": {"kernel_initializer": {"class_name": "VarianceScaling", "config": {"dtype": "float32", "distribution": "truncated_normal", "scale": 2.0, "seed": null, "mode": "fan_in"}}, "name": "res3c_branch2a", "kernel_constraint": null, "bias_regularizer": null, "bias_constraint": null, "dtype": "float32", "activation": "linear", "trainable": true, "data_format": "channels_last", "padding": "valid", "strides": [1, 1], "dilation_rate": [1, 1], "kernel_regularizer": null, "filters": 128, "bias_initializer": {"class_name": "Zeros", "config": {"dtype": "float32"}}, "use_bias": true, "activity_regularizer": null, "kernel_size": [1, 1]}, "name": "res3c_branch2a"}, {"class_name": "BatchNormalization", "inbound_nodes": [[["res3c_branch2a", 0, 0, {}]]], "config": {"gamma_initializer": {"class_name": "Ones", "config": {"dtype": "float32"}}, "moving_mean_initializer": {"class_name": "Zeros", "config": {"dtype": "float32"}}, "name": "bn3c_branch2a", "gamma_regularizer": null, "dtype": "float32", "trainable": true, "center": true, "moving_variance_initializer": {"class_name": "Ones", "config": {"dtype": "float32"}}, "beta_initializer": {"class_name": "Zeros", "config": {"dtype": "float32"}}, "scale": true, "epsilon": 0.001, "gamma_constraint": null, "beta_constraint": null, "beta_regularizer": null, "momentum": 0.99, "axis": [3]}, "name": "bn3c_branch2a"}, {"class_name": "Activation", "inbound_nodes": [[["bn3c_branch2a", 0, 0, {}]]], "config": {"dtype": "float32", "activation": "relu", "trainable": true, "name": "activation_16"}, "name": "activation_16"}, {"class_name": "Conv2D", "inbound_nodes": [[["activation_16", 0, 0, {}]]], "config": {"kernel_initializer": {"class_name": "VarianceScaling", "config": {"dtype": "float32", "distribution": "truncated_normal", "scale": 2.0, "seed": null, "mode": "fan_in"}}, "name": "res3c_branch2b", "kernel_constraint": null, "bias_regularizer": null, "bias_constraint": null, "dtype": "float32", "activation": "linear", "trainable": true, "data_format": "channels_last", "padding": "same", "strides": [1, 1], "dilation_rate": [1, 1], "kernel_regularizer": null, "filters": 128, "bias_initializer": {"class_name": "Zeros", "config": {"dtype": "float32"}}, "use_bias": true, "activity_regularizer": null, "kernel_size": [3, 3]}, "name": "res3c_branch2b"}, {"class_name": "BatchNormalization", "inbound_nodes": [[["res3c_branch2b", 0, 0, {}]]], "config": {"gamma_initializer": {"class_name": "Ones", "config": {"dtype": "float32"}}, "moving_mean_initializer": {"class_name": "Zeros", "config": {"dtype": "float32"}}, "name": "bn3c_branch2b", "gamma_regularizer": null, "dtype": "float32", "trainable": true, "center": true, "moving_variance_initializer": {"class_name": "Ones", "config": {"dtype": "float32"}}, "beta_initializer": {"class_name": "Zeros", "config": {"dtype": "float32"}}, "scale": true, "epsilon": 0.001, "gamma_constraint": null, "beta_constraint": null, "beta_regularizer": null, "momentum": 0.99, "axis": [3]}, "name": "bn3c_branch2b"}, {"class_name": "Activation", "inbound_nodes": [[["bn3c_branch2b", 0, 0, {}]]], "config": {"dtype": "float32", "activation": "relu", "trainable": true, "name": "activation_17"}, "name": "activation_17"}, {"class_name": "Conv2D", "inbound_nodes": [[["activation_17", 0, 0, {}]]], "config": {"kernel_initializer": {"class_name": "VarianceScaling", "config": {"dtype": "float32", "distribution": "truncated_normal", "scale": 2.0, "seed": null, "mode": "fan_in"}}, "name": "res3c_branch2c", "kernel_constraint": null, "bias_regularizer": null, "bias_constraint": null, "dtype": "float32", "activation": "linear", "trainable": true, "data_format": "channels_last", "padding": "valid", "strides": [1, 1], "dilation_rate": [1, 1], "kernel_regularizer": null, "filters": 512, "bias_initializer": {"class_name": "Zeros", "config": {"dtype": "float32"}}, "use_bias": true, "activity_regularizer": null, "kernel_size": [1, 1]}, "name": "res3c_branch2c"}, {"class_name": "BatchNormalization", "inbound_nodes": [[["res3c_branch2c", 0, 0, {}]]], "config": {"gamma_initializer": {"class_name": "Ones", "config": {"dtype": "float32"}}, "moving_mean_initializer": {"class_name": "Zeros", "config": {"dtype": "float32"}}, "name": "bn3c_branch2c", "gamma_regularizer": null, "dtype": "float32", "trainable": true, "center": true, "moving_variance_initializer": {"class_name": "Ones", "config": {"dtype": "float32"}}, "beta_initializer": {"class_name": "Zeros", "config": {"dtype": "float32"}}, "scale": true, "epsilon": 0.001, "gamma_constraint": null, "beta_constraint": null, "beta_regularizer": null, "momentum": 0.99, "axis": [3]}, "name": "bn3c_branch2c"}, {"class_name": "Add", "inbound_nodes": [[["bn3c_branch2c", 0, 0, {}], ["activation_15", 0, 0, {}]]], "config": {"dtype": "float32", "trainable": true, "name": "add_5"}, "name": "add_5"}, {"class_name": "Activation", "inbound_nodes": [[["add_5", 0, 0, {}]]], "config": {"dtype": "float32", "activation": "relu", "trainable": true, "name": "activation_18"}, "name": "activation_18"}, {"class_name": "Conv2D", "inbound_nodes": [[["activation_18", 0, 0, {}]]], "config": {"kernel_initializer": {"class_name": "VarianceScaling", "config": {"dtype": "float32", "distribution": "truncated_normal", "scale": 2.0, "seed": null, "mode": "fan_in"}}, "name": "res3d_branch2a", "kernel_constraint": null, "bias_regularizer": null, "bias_constraint": null, "dtype": "float32", "activation": "linear", "trainable": true, "data_format": "channels_last", "padding": "valid", "strides": [1, 1], "dilation_rate": [1, 1], "kernel_regularizer": null, "filters": 128, "bias_initializer": {"class_name": "Zeros", "config": {"dtype": "float32"}}, "use_bias": true, "activity_regularizer": null, "kernel_size": [1, 1]}, "name": "res3d_branch2a"}, {"class_name": "BatchNormalization", "inbound_nodes": [[["res3d_branch2a", 0, 0, {}]]], "config": {"gamma_initializer": {"class_name": "Ones", "config": {"dtype": "float32"}}, "moving_mean_initializer": {"class_name": "Zeros", "config": {"dtype": "float32"}}, "name": "bn3d_branch2a", "gamma_regularizer": null, "dtype": "float32", "trainable": true, "center": true, "moving_variance_initializer": {"class_name": "Ones", "config": {"dtype": "float32"}}, "beta_initializer": {"class_name": "Zeros", "config": {"dtype": "float32"}}, "scale": true, "epsilon": 0.001, "gamma_constraint": null, "beta_constraint": null, "beta_regularizer": null, "momentum": 0.99, "axis": [3]}, "name": "bn3d_branch2a"}, {"class_name": "Activation", "inbound_nodes": [[["bn3d_branch2a", 0, 0, {}]]], "config": {"dtype": "float32", "activation": "relu", "trainable": true, "name": "activation_19"}, "name": "activation_19"}, {"class_name": "Conv2D", "inbound_nodes": [[["activation_19", 0, 0, {}]]], "config": {"kernel_initializer": {"class_name": "VarianceScaling", "config": {"dtype": "float32", "distribution": "truncated_normal", "scale": 2.0, "seed": null, "mode": "fan_in"}}, "name": "res3d_branch2b", "kernel_constraint": null, "bias_regularizer": null, "bias_constraint": null, "dtype": "float32", "activation": "linear", "trainable": true, "data_format": "channels_last", "padding": "same", "strides": [1, 1], "dilation_rate": [1, 1], "kernel_regularizer": null, "filters": 128, "bias_initializer": {"class_name": "Zeros", "config": {"dtype": "float32"}}, "use_bias": true, "activity_regularizer": null, "kernel_size": [3, 3]}, "name": "res3d_branch2b"}, {"class_name": "BatchNormalization", "inbound_nodes": [[["res3d_branch2b", 0, 0, {}]]], "config": {"gamma_initializer": {"class_name": "Ones", "config": {"dtype": "float32"}}, "moving_mean_initializer": {"class_name": "Zeros", "config": {"dtype": "float32"}}, "name": "bn3d_branch2b", "gamma_regularizer": null, "dtype": "float32", "trainable": true, "center": true, "moving_variance_initializer": {"class_name": "Ones", "config": {"dtype": "float32"}}, "beta_initializer": {"class_name": "Zeros", "config": {"dtype": "float32"}}, "scale": true, "epsilon": 0.001, "gamma_constraint": null, "beta_constraint": null, "beta_regularizer": null, "momentum": 0.99, "axis": [3]}, "name": "bn3d_branch2b"}, {"class_name": "Activation", "inbound_nodes": [[["bn3d_branch2b", 0, 0, {}]]], "config": {"dtype": "float32", "activation": "relu", "trainable": true, "name": "activation_20"}, "name": "activation_20"}, {"class_name": "Conv2D", "inbound_nodes": [[["activation_20", 0, 0, {}]]], "config": {"kernel_initializer": {"class_name": "VarianceScaling", "config": {"dtype": "float32", "distribution": "truncated_normal", "scale": 2.0, "seed": null, "mode": "fan_in"}}, "name": "res3d_branch2c", "kernel_constraint": null, "bias_regularizer": null, "bias_constraint": null, "dtype": "float32", "activation": "linear", "trainable": true, "data_format": "channels_last", "padding": "valid", "strides": [1, 1], "dilation_rate": [1, 1], "kernel_regularizer": null, "filters": 512, "bias_initializer": {"class_name": "Zeros", "config": {"dtype": "float32"}}, "use_bias": true, "activity_regularizer": null, "kernel_size": [1, 1]}, "name": "res3d_branch2c"}, {"class_name": "BatchNormalization", "inbound_nodes": [[["res3d_branch2c", 0, 0, {}]]], "config": {"gamma_initializer": {"class_name": "Ones", "config": {"dtype": "float32"}}, "moving_mean_initializer": {"class_name": "Zeros", "config": {"dtype": "float32"}}, "name": "bn3d_branch2c", "gamma_regularizer": null, "dtype": "float32", "trainable": true, "center": true, "moving_variance_initializer": {"class_name": "Ones", "config": {"dtype": "float32"}}, "beta_initializer": {"class_name": "Zeros", "config": {"dtype": "float32"}}, "scale": true, "epsilon": 0.001, "gamma_constraint": null, "beta_constraint": null, "beta_regularizer": null, "momentum": 0.99, "axis": [3]}, "name": "bn3d_branch2c"}, {"class_name": "Add", "inbound_nodes": [[["bn3d_branch2c", 0, 0, {}], ["activation_18", 0, 0, {}]]], "config": {"dtype": "float32", "trainable": true, "name": "add_6"}, "name": "add_6"}, {"class_name": "Activation", "inbound_nodes": [[["add_6", 0, 0, {}]]], "config": {"dtype": "float32", "activation": "relu", "trainable": true, "name": "activation_21"}, "name": "activation_21"}, {"class_name": "Conv2D", "inbound_nodes": [[["activation_21", 0, 0, {}]]], "config": {"kernel_initializer": {"class_name": "VarianceScaling", "config": {"dtype": "float32", "distribution": "truncated_normal", "scale": 2.0, "seed": null, "mode": "fan_in"}}, "name": "res4a_branch2a", "kernel_constraint": null, "bias_regularizer": null, "bias_constraint": null, "dtype": "float32", "activation": "linear", "trainable": true, "data_format": "channels_last", "padding": "valid", "strides": [2, 2], "dilation_rate": [1, 1], "kernel_regularizer": null, "filters": 256, "bias_initializer": {"class_name": "Zeros", "config": {"dtype": "float32"}}, "use_bias": true, "activity_regularizer": null, "kernel_size": [1, 1]}, "name": "res4a_branch2a"}, {"class_name": "BatchNormalization", "inbound_nodes": [[["res4a_branch2a", 0, 0, {}]]], "config": {"gamma_initializer": {"class_name": "Ones", "config": {"dtype": "float32"}}, "moving_mean_initializer": {"class_name": "Zeros", "config": {"dtype": "float32"}}, "name": "bn4a_branch2a", "gamma_regularizer": null, "dtype": "float32", "trainable": true, "center": true, "moving_variance_initializer": {"class_name": "Ones", "config": {"dtype": "float32"}}, "beta_initializer": {"class_name": "Zeros", "config": {"dtype": "float32"}}, "scale": true, "epsilon": 0.001, "gamma_constraint": null, "beta_constraint": null, "beta_regularizer": null, "momentum": 0.99, "axis": [3]}, "name": "bn4a_branch2a"}, {"class_name": "Activation", "inbound_nodes": [[["bn4a_branch2a", 0, 0, {}]]], "config": {"dtype": "float32", "activation": "relu", "trainable": true, "name": "activation_22"}, "name": "activation_22"}, {"class_name": "Conv2D", "inbound_nodes": [[["activation_22", 0, 0, {}]]], "config": {"kernel_initializer": {"class_name": "VarianceScaling", "config": {"dtype": "float32", "distribution": "truncated_normal", "scale": 2.0, "seed": null, "mode": "fan_in"}}, "name": "res4a_branch2b", "kernel_constraint": null, "bias_regularizer": null, "bias_constraint": null, "dtype": "float32", "activation": "linear", "trainable": true, "data_format": "channels_last", "padding": "same", "strides": [1, 1], "dilation_rate": [1, 1], "kernel_regularizer": null, "filters": 256, "bias_initializer": {"class_name": "Zeros", "config": {"dtype": "float32"}}, "use_bias": true, "activity_regularizer": null, "kernel_size": [3, 3]}, "name": "res4a_branch2b"}, {"class_name": "BatchNormalization", "inbound_nodes": [[["res4a_branch2b", 0, 0, {}]]], "config": {"gamma_initializer": {"class_name": "Ones", "config": {"dtype": "float32"}}, "moving_mean_initializer": {"class_name": "Zeros", "config": {"dtype": "float32"}}, "name": "bn4a_branch2b", "gamma_regularizer": null, "dtype": "float32", "trainable": true, "center": true, "moving_variance_initializer": {"class_name": "Ones", "config": {"dtype": "float32"}}, "beta_initializer": {"class_name": "Zeros", "config": {"dtype": "float32"}}, "scale": true, "epsilon": 0.001, "gamma_constraint": null, "beta_constraint": null, "beta_regularizer": null, "momentum": 0.99, "axis": [3]}, "name": "bn4a_branch2b"}, {"class_name": "Activation", "inbound_nodes": [[["bn4a_branch2b", 0, 0, {}]]], "config": {"dtype": "float32", "activation": "relu", "trainable": true, "name": "activation_23"}, "name": "activation_23"}, {"class_name": "Conv2D", "inbound_nodes": [[["activation_23", 0, 0, {}]]], "config": {"kernel_initializer": {"class_name": "VarianceScaling", "config": {"dtype": "float32", "distribution": "truncated_normal", "scale": 2.0, "seed": null, "mode": "fan_in"}}, "name": "res4a_branch2c", "kernel_constraint": null, "bias_regularizer": null, "bias_constraint": null, "dtype": "float32", "activation": "linear", "trainable": true, "data_format": "channels_last", "padding": "valid", "strides": [1, 1], "dilation_rate": [1, 1], "kernel_regularizer": null, "filters": 1024, "bias_initializer": {"class_name": "Zeros", "config": {"dtype": "float32"}}, "use_bias": true, "activity_regularizer": null, "kernel_size": [1, 1]}, "name": "res4a_branch2c"}, {"class_name": "Conv2D", "inbound_nodes": [[["activation_21", 0, 0, {}]]], "config": {"kernel_initializer": {"class_name": "VarianceScaling", "config": {"dtype": "float32", "distribution": "truncated_normal", "scale": 2.0, "seed": null, "mode": "fan_in"}}, "name": "res4a_branch1", "kernel_constraint": null, "bias_regularizer": null, "bias_constraint": null, "dtype": "float32", "activation": "linear", "trainable": true, "data_format": "channels_last", "padding": "valid", "strides": [2, 2], "dilation_rate": [1, 1], "kernel_regularizer": null, "filters": 1024, "bias_initializer": {"class_name": "Zeros", "config": {"dtype": "float32"}}, "use_bias": true, "activity_regularizer": null, "kernel_size": [1, 1]}, "name": "res4a_branch1"}, {"class_name": "BatchNormalization", "inbound_nodes": [[["res4a_branch2c", 0, 0, {}]]], "config": {"gamma_initializer": {"class_name": "Ones", "config": {"dtype": "float32"}}, "moving_mean_initializer": {"class_name": "Zeros", "config": {"dtype": "float32"}}, "name": "bn4a_branch2c", "gamma_regularizer": null, "dtype": "float32", "trainable": true, "center": true, "moving_variance_initializer": {"class_name": "Ones", "config": {"dtype": "float32"}}, "beta_initializer": {"class_name": "Zeros", "config": {"dtype": "float32"}}, "scale": true, "epsilon": 0.001, "gamma_constraint": null, "beta_constraint": null, "beta_regularizer": null, "momentum": 0.99, "axis": [3]}, "name": "bn4a_branch2c"}, {"class_name": "BatchNormalization", "inbound_nodes": [[["res4a_branch1", 0, 0, {}]]], "config": {"gamma_initializer": {"class_name": "Ones", "config": {"dtype": "float32"}}, "moving_mean_initializer": {"class_name": "Zeros", "config": {"dtype": "float32"}}, "name": "bn4a_branch1", "gamma_regularizer": null, "dtype": "float32", "trainable": true, "center": true, "moving_variance_initializer": {"class_name": "Ones", "config": {"dtype": "float32"}}, "beta_initializer": {"class_name": "Zeros", "config": {"dtype": "float32"}}, "scale": true, "epsilon": 0.001, "gamma_constraint": null, "beta_constraint": null, "beta_regularizer": null, "momentum": 0.99, "axis": [3]}, "name": "bn4a_branch1"}, {"class_name": "Add", "inbound_nodes": [[["bn4a_branch2c", 0, 0, {}], ["bn4a_branch1", 0, 0, {}]]], "config": {"dtype": "float32", "trainable": true, "name": "add_7"}, "name": "add_7"}, {"class_name": "Activation", "inbound_nodes": [[["add_7", 0, 0, {}]]], "config": {"dtype": "float32", "activation": "relu", "trainable": true, "name": "activation_24"}, "name": "activation_24"}, {"class_name": "Conv2D", "inbound_nodes": [[["activation_24", 0, 0, {}]]], "config": {"kernel_initializer": {"class_name": "VarianceScaling", "config": {"dtype": "float32", "distribution": "truncated_normal", "scale": 2.0, "seed": null, "mode": "fan_in"}}, "name": "res4b_branch2a", "kernel_constraint": null, "bias_regularizer": null, "bias_constraint": null, "dtype": "float32", "activation": "linear", "trainable": true, "data_format": "channels_last", "padding": "valid", "strides": [1, 1], "dilation_rate": [1, 1], "kernel_regularizer": null, "filters": 256, "bias_initializer": {"class_name": "Zeros", "config": {"dtype": "float32"}}, "use_bias": true, "activity_regularizer": null, "kernel_size": [1, 1]}, "name": "res4b_branch2a"}, {"class_name": "BatchNormalization", "inbound_nodes": [[["res4b_branch2a", 0, 0, {}]]], "config": {"gamma_initializer": {"class_name": "Ones", "config": {"dtype": "float32"}}, "moving_mean_initializer": {"class_name": "Zeros", "config": {"dtype": "float32"}}, "name": "bn4b_branch2a", "gamma_regularizer": null, "dtype": "float32", "trainable": true, "center": true, "moving_variance_initializer": {"class_name": "Ones", "config": {"dtype": "float32"}}, "beta_initializer": {"class_name": "Zeros", "config": {"dtype": "float32"}}, "scale": true, "epsilon": 0.001, "gamma_constraint": null, "beta_constraint": null, "beta_regularizer": null, "momentum": 0.99, "axis": [3]}, "name": "bn4b_branch2a"}, {"class_name": "Activation", "inbound_nodes": [[["bn4b_branch2a", 0, 0, {}]]], "config": {"dtype": "float32", "activation": "relu", "trainable": true, "name": "activation_25"}, "name": "activation_25"}, {"class_name": "Conv2D", "inbound_nodes": [[["activation_25", 0, 0, {}]]], "config": {"kernel_initializer": {"class_name": "VarianceScaling", "config": {"dtype": "float32", "distribution": "truncated_normal", "scale": 2.0, "seed": null, "mode": "fan_in"}}, "name": "res4b_branch2b", "kernel_constraint": null, "bias_regularizer": null, "bias_constraint": null, "dtype": "float32", "activation": "linear", "trainable": true, "data_format": "channels_last", "padding": "same", "strides": [1, 1], "dilation_rate": [1, 1], "kernel_regularizer": null, "filters": 256, "bias_initializer": {"class_name": "Zeros", "config": {"dtype": "float32"}}, "use_bias": true, "activity_regularizer": null, "kernel_size": [3, 3]}, "name": "res4b_branch2b"}, {"class_name": "BatchNormalization", "inbound_nodes": [[["res4b_branch2b", 0, 0, {}]]], "config": {"gamma_initializer": {"class_name": "Ones", "config": {"dtype": "float32"}}, "moving_mean_initializer": {"class_name": "Zeros", "config": {"dtype": "float32"}}, "name": "bn4b_branch2b", "gamma_regularizer": null, "dtype": "float32", "trainable": true, "center": true, "moving_variance_initializer": {"class_name": "Ones", "config": {"dtype": "float32"}}, "beta_initializer": {"class_name": "Zeros", "config": {"dtype": "float32"}}, "scale": true, "epsilon": 0.001, "gamma_constraint": null, "beta_constraint": null, "beta_regularizer": null, "momentum": 0.99, "axis": [3]}, "name": "bn4b_branch2b"}, {"class_name": "Activation", "inbound_nodes": [[["bn4b_branch2b", 0, 0, {}]]], "config": {"dtype": "float32", "activation": "relu", "trainable": true, "name": "activation_26"}, "name": "activation_26"}, {"class_name": "Conv2D", "inbound_nodes": [[["activation_26", 0, 0, {}]]], "config": {"kernel_initializer": {"class_name": "VarianceScaling", "config": {"dtype": "float32", "distribution": "truncated_normal", "scale": 2.0, "seed": null, "mode": "fan_in"}}, "name": "res4b_branch2c", "kernel_constraint": null, "bias_regularizer": null, "bias_constraint": null, "dtype": "float32", "activation": "linear", "trainable": true, "data_format": "channels_last", "padding": "valid", "strides": [1, 1], "dilation_rate": [1, 1], "kernel_regularizer": null, "filters": 1024, "bias_initializer": {"class_name": "Zeros", "config": {"dtype": "float32"}}, "use_bias": true, "activity_regularizer": null, "kernel_size": [1, 1]}, "name": "res4b_branch2c"}, {"class_name": "BatchNormalization", "inbound_nodes": [[["res4b_branch2c", 0, 0, {}]]], "config": {"gamma_initializer": {"class_name": "Ones", "config": {"dtype": "float32"}}, "moving_mean_initializer": {"class_name": "Zeros", "config": {"dtype": "float32"}}, "name": "bn4b_branch2c", "gamma_regularizer": null, "dtype": "float32", "trainable": true, "center": true, "moving_variance_initializer": {"class_name": "Ones", "config": {"dtype": "float32"}}, "beta_initializer": {"class_name": "Zeros", "config": {"dtype": "float32"}}, "scale": true, "epsilon": 0.001, "gamma_constraint": null, "beta_constraint": null, "beta_regularizer": null, "momentum": 0.99, "axis": [3]}, "name": "bn4b_branch2c"}, {"class_name": "Add", "inbound_nodes": [[["bn4b_branch2c", 0, 0, {}], ["activation_24", 0, 0, {}]]], "config": {"dtype": "float32", "trainable": true, "name": "add_8"}, "name": "add_8"}, {"class_name": "Activation", "inbound_nodes": [[["add_8", 0, 0, {}]]], "config": {"dtype": "float32", "activation": "relu", "trainable": true, "name": "activation_27"}, "name": "activation_27"}, {"class_name": "Conv2D", "inbound_nodes": [[["activation_27", 0, 0, {}]]], "config": {"kernel_initializer": {"class_name": "VarianceScaling", "config": {"dtype": "float32", "distribution": "truncated_normal", "scale": 2.0, "seed": null, "mode": "fan_in"}}, "name": "res4c_branch2a", "kernel_constraint": null, "bias_regularizer": null, "bias_constraint": null, "dtype": "float32", "activation": "linear", "trainable": true, "data_format": "channels_last", "padding": "valid", "strides": [1, 1], "dilation_rate": [1, 1], "kernel_regularizer": null, "filters": 256, "bias_initializer": {"class_name": "Zeros", "config": {"dtype": "float32"}}, "use_bias": true, "activity_regularizer": null, "kernel_size": [1, 1]}, "name": "res4c_branch2a"}, {"class_name": "BatchNormalization", "inbound_nodes": [[["res4c_branch2a", 0, 0, {}]]], "config": {"gamma_initializer": {"class_name": "Ones", "config": {"dtype": "float32"}}, "moving_mean_initializer": {"class_name": "Zeros", "config": {"dtype": "float32"}}, "name": "bn4c_branch2a", "gamma_regularizer": null, "dtype": "float32", "trainable": true, "center": true, "moving_variance_initializer": {"class_name": "Ones", "config": {"dtype": "float32"}}, "beta_initializer": {"class_name": "Zeros", "config": {"dtype": "float32"}}, "scale": true, "epsilon": 0.001, "gamma_constraint": null, "beta_constraint": null, "beta_regularizer": null, "momentum": 0.99, "axis": [3]}, "name": "bn4c_branch2a"}, {"class_name": "Activation", "inbound_nodes": [[["bn4c_branch2a", 0, 0, {}]]], "config": {"dtype": "float32", "activation": "relu", "trainable": true, "name": "activation_28"}, "name": "activation_28"}, {"class_name": "Conv2D", "inbound_nodes": [[["activation_28", 0, 0, {}]]], "config": {"kernel_initializer": {"class_name": "VarianceScaling", "config": {"dtype": "float32", "distribution": "truncated_normal", "scale": 2.0, "seed": null, "mode": "fan_in"}}, "name": "res4c_branch2b", "kernel_constraint": null, "bias_regularizer": null, "bias_constraint": null, "dtype": "float32", "activation": "linear", "trainable": true, "data_format": "channels_last", "padding": "same", "strides": [1, 1], "dilation_rate": [1, 1], "kernel_regularizer": null, "filters": 256, "bias_initializer": {"class_name": "Zeros", "config": {"dtype": "float32"}}, "use_bias": true, "activity_regularizer": null, "kernel_size": [3, 3]}, "name": "res4c_branch2b"}, {"class_name": "BatchNormalization", "inbound_nodes": [[["res4c_branch2b", 0, 0, {}]]], "config": {"gamma_initializer": {"class_name": "Ones", "config": {"dtype": "float32"}}, "moving_mean_initializer": {"class_name": "Zeros", "config": {"dtype": "float32"}}, "name": "bn4c_branch2b", "gamma_regularizer": null, "dtype": "float32", "trainable": true, "center": true, "moving_variance_initializer": {"class_name": "Ones", "config": {"dtype": "float32"}}, "beta_initializer": {"class_name": "Zeros", "config": {"dtype": "float32"}}, "scale": true, "epsilon": 0.001, "gamma_constraint": null, "beta_constraint": null, "beta_regularizer": null, "momentum": 0.99, "axis": [3]}, "name": "bn4c_branch2b"}, {"class_name": "Activation", "inbound_nodes": [[["bn4c_branch2b", 0, 0, {}]]], "config": {"dtype": "float32", "activation": "relu", "trainable": true, "name": "activation_29"}, "name": "activation_29"}, {"class_name": "Conv2D", "inbound_nodes": [[["activation_29", 0, 0, {}]]], "config": {"kernel_initializer": {"class_name": "VarianceScaling", "config": {"dtype": "float32", "distribution": "truncated_normal", "scale": 2.0, "seed": null, "mode": "fan_in"}}, "name": "res4c_branch2c", "kernel_constraint": null, "bias_regularizer": null, "bias_constraint": null, "dtype": "float32", "activation": "linear", "trainable": true, "data_format": "channels_last", "padding": "valid", "strides": [1, 1], "dilation_rate": [1, 1], "kernel_regularizer": null, "filters": 1024, "bias_initializer": {"class_name": "Zeros", "config": {"dtype": "float32"}}, "use_bias": true, "activity_regularizer": null, "kernel_size": [1, 1]}, "name": "res4c_branch2c"}, {"class_name": "BatchNormalization", "inbound_nodes": [[["res4c_branch2c", 0, 0, {}]]], "config": {"gamma_initializer": {"class_name": "Ones", "config": {"dtype": "float32"}}, "moving_mean_initializer": {"class_name": "Zeros", "config": {"dtype": "float32"}}, "name": "bn4c_branch2c", "gamma_regularizer": null, "dtype": "float32", "trainable": true, "center": true, "moving_variance_initializer": {"class_name": "Ones", "config": {"dtype": "float32"}}, "beta_initializer": {"class_name": "Zeros", "config": {"dtype": "float32"}}, "scale": true, "epsilon": 0.001, "gamma_constraint": null, "beta_constraint": null, "beta_regularizer": null, "momentum": 0.99, "axis": [3]}, "name": "bn4c_branch2c"}, {"class_name": "Add", "inbound_nodes": [[["bn4c_branch2c", 0, 0, {}], ["activation_27", 0, 0, {}]]], "config": {"dtype": "float32", "trainable": true, "name": "add_9"}, "name": "add_9"}, {"class_name": "Activation", "inbound_nodes": [[["add_9", 0, 0, {}]]], "config": {"dtype": "float32", "activation": "relu", "trainable": true, "name": "activation_30"}, "name": "activation_30"}, {"class_name": "Conv2D", "inbound_nodes": [[["activation_30", 0, 0, {}]]], "config": {"kernel_initializer": {"class_name": "VarianceScaling", "config": {"dtype": "float32", "distribution": "truncated_normal", "scale": 2.0, "seed": null, "mode": "fan_in"}}, "name": "res4d_branch2a", "kernel_constraint": null, "bias_regularizer": null, "bias_constraint": null, "dtype": "float32", "activation": "linear", "trainable": true, "data_format": "channels_last", "padding": "valid", "strides": [1, 1], "dilation_rate": [1, 1], "kernel_regularizer": null, "filters": 256, "bias_initializer": {"class_name": "Zeros", "config": {"dtype": "float32"}}, "use_bias": true, "activity_regularizer": null, "kernel_size": [1, 1]}, "name": "res4d_branch2a"}, {"class_name": "BatchNormalization", "inbound_nodes": [[["res4d_branch2a", 0, 0, {}]]], "config": {"gamma_initializer": {"class_name": "Ones", "config": {"dtype": "float32"}}, "moving_mean_initializer": {"class_name": "Zeros", "config": {"dtype": "float32"}}, "name": "bn4d_branch2a", "gamma_regularizer": null, "dtype": "float32", "trainable": true, "center": true, "moving_variance_initializer": {"class_name": "Ones", "config": {"dtype": "float32"}}, "beta_initializer": {"class_name": "Zeros", "config": {"dtype": "float32"}}, "scale": true, "epsilon": 0.001, "gamma_constraint": null, "beta_constraint": null, "beta_regularizer": null, "momentum": 0.99, "axis": [3]}, "name": "bn4d_branch2a"}, {"class_name": "Activation", "inbound_nodes": [[["bn4d_branch2a", 0, 0, {}]]], "config": {"dtype": "float32", "activation": "relu", "trainable": true, "name": "activation_31"}, "name": "activation_31"}, {"class_name": "Conv2D", "inbound_nodes": [[["activation_31", 0, 0, {}]]], "config": {"kernel_initializer": {"class_name": "VarianceScaling", "config": {"dtype": "float32", "distribution": "truncated_normal", "scale": 2.0, "seed": null, "mode": "fan_in"}}, "name": "res4d_branch2b", "kernel_constraint": null, "bias_regularizer": null, "bias_constraint": null, "dtype": "float32", "activation": "linear", "trainable": true, "data_format": "channels_last", "padding": "same", "strides": [1, 1], "dilation_rate": [1, 1], "kernel_regularizer": null, "filters": 256, "bias_initializer": {"class_name": "Zeros", "config": {"dtype": "float32"}}, "use_bias": true, "activity_regularizer": null, "kernel_size": [3, 3]}, "name": "res4d_branch2b"}, {"class_name": "BatchNormalization", "inbound_nodes": [[["res4d_branch2b", 0, 0, {}]]], "config": {"gamma_initializer": {"class_name": "Ones", "config": {"dtype": "float32"}}, "moving_mean_initializer": {"class_name": "Zeros", "config": {"dtype": "float32"}}, "name": "bn4d_branch2b", "gamma_regularizer": null, "dtype": "float32", "trainable": true, "center": true, "moving_variance_initializer": {"class_name": "Ones", "config": {"dtype": "float32"}}, "beta_initializer": {"class_name": "Zeros", "config": {"dtype": "float32"}}, "scale": true, "epsilon": 0.001, "gamma_constraint": null, "beta_constraint": null, "beta_regularizer": null, "momentum": 0.99, "axis": [3]}, "name": "bn4d_branch2b"}, {"class_name": "Activation", "inbound_nodes": [[["bn4d_branch2b", 0, 0, {}]]], "config": {"dtype": "float32", "activation": "relu", "trainable": true, "name": "activation_32"}, "name": "activation_32"}, {"class_name": "Conv2D", "inbound_nodes": [[["activation_32", 0, 0, {}]]], "config": {"kernel_initializer": {"class_name": "VarianceScaling", "config": {"dtype": "float32", "distribution": "truncated_normal", "scale": 2.0, "seed": null, "mode": "fan_in"}}, "name": "res4d_branch2c", "kernel_constraint": null, "bias_regularizer": null, "bias_constraint": null, "dtype": "float32", "activation": "linear", "trainable": true, "data_format": "channels_last", "padding": "valid", "strides": [1, 1], "dilation_rate": [1, 1], "kernel_regularizer": null, "filters": 1024, "bias_initializer": {"class_name": "Zeros", "config": {"dtype": "float32"}}, "use_bias": true, "activity_regularizer": null, "kernel_size": [1, 1]}, "name": "res4d_branch2c"}, {"class_name": "BatchNormalization", "inbound_nodes": [[["res4d_branch2c", 0, 0, {}]]], "config": {"gamma_initializer": {"class_name": "Ones", "config": {"dtype": "float32"}}, "moving_mean_initializer": {"class_name": "Zeros", "config": {"dtype": "float32"}}, "name": "bn4d_branch2c", "gamma_regularizer": null, "dtype": "float32", "trainable": true, "center": true, "moving_variance_initializer": {"class_name": "Ones", "config": {"dtype": "float32"}}, "beta_initializer": {"class_name": "Zeros", "config": {"dtype": "float32"}}, "scale": true, "epsilon": 0.001, "gamma_constraint": null, "beta_constraint": null, "beta_regularizer": null, "momentum": 0.99, "axis": [3]}, "name": "bn4d_branch2c"}, {"class_name": "Add", "inbound_nodes": [[["bn4d_branch2c", 0, 0, {}], ["activation_30", 0, 0, {}]]], "config": {"dtype": "float32", "trainable": true, "name": "add_10"}, "name": "add_10"}, {"class_name": "Activation", "inbound_nodes": [[["add_10", 0, 0, {}]]], "config": {"dtype": "float32", "activation": "relu", "trainable": true, "name": "activation_33"}, "name": "activation_33"}, {"class_name": "Conv2D", "inbound_nodes": [[["activation_33", 0, 0, {}]]], "config": {"kernel_initializer": {"class_name": "VarianceScaling", "config": {"dtype": "float32", "distribution": "truncated_normal", "scale": 2.0, "seed": null, "mode": "fan_in"}}, "name": "res4e_branch2a", "kernel_constraint": null, "bias_regularizer": null, "bias_constraint": null, "dtype": "float32", "activation": "linear", "trainable": true, "data_format": "channels_last", "padding": "valid", "strides": [1, 1], "dilation_rate": [1, 1], "kernel_regularizer": null, "filters": 256, "bias_initializer": {"class_name": "Zeros", "config": {"dtype": "float32"}}, "use_bias": true, "activity_regularizer": null, "kernel_size": [1, 1]}, "name": "res4e_branch2a"}, {"class_name": "BatchNormalization", "inbound_nodes": [[["res4e_branch2a", 0, 0, {}]]], "config": {"gamma_initializer": {"class_name": "Ones", "config": {"dtype": "float32"}}, "moving_mean_initializer": {"class_name": "Zeros", "config": {"dtype": "float32"}}, "name": "bn4e_branch2a", "gamma_regularizer": null, "dtype": "float32", "trainable": true, "center": true, "moving_variance_initializer": {"class_name": "Ones", "config": {"dtype": "float32"}}, "beta_initializer": {"class_name": "Zeros", "config": {"dtype": "float32"}}, "scale": true, "epsilon": 0.001, "gamma_constraint": null, "beta_constraint": null, "beta_regularizer": null, "momentum": 0.99, "axis": [3]}, "name": "bn4e_branch2a"}, {"class_name": "Activation", "inbound_nodes": [[["bn4e_branch2a", 0, 0, {}]]], "config": {"dtype": "float32", "activation": "relu", "trainable": true, "name": "activation_34"}, "name": "activation_34"}, {"class_name": "Conv2D", "inbound_nodes": [[["activation_34", 0, 0, {}]]], "config": {"kernel_initializer": {"class_name": "VarianceScaling", "config": {"dtype": "float32", "distribution": "truncated_normal", "scale": 2.0, "seed": null, "mode": "fan_in"}}, "name": "res4e_branch2b", "kernel_constraint": null, "bias_regularizer": null, "bias_constraint": null, "dtype": "float32", "activation": "linear", "trainable": true, "data_format": "channels_last", "padding": "same", "strides": [1, 1], "dilation_rate": [1, 1], "kernel_regularizer": null, "filters": 256, "bias_initializer": {"class_name": "Zeros", "config": {"dtype": "float32"}}, "use_bias": true, "activity_regularizer": null, "kernel_size": [3, 3]}, "name": "res4e_branch2b"}, {"class_name": "BatchNormalization", "inbound_nodes": [[["res4e_branch2b", 0, 0, {}]]], "config": {"gamma_initializer": {"class_name": "Ones", "config": {"dtype": "float32"}}, "moving_mean_initializer": {"class_name": "Zeros", "config": {"dtype": "float32"}}, "name": "bn4e_branch2b", "gamma_regularizer": null, "dtype": "float32", "trainable": true, "center": true, "moving_variance_initializer": {"class_name": "Ones", "config": {"dtype": "float32"}}, "beta_initializer": {"class_name": "Zeros", "config": {"dtype": "float32"}}, "scale": true, "epsilon": 0.001, "gamma_constraint": null, "beta_constraint": null, "beta_regularizer": null, "momentum": 0.99, "axis": [3]}, "name": "bn4e_branch2b"}, {"class_name": "Activation", "inbound_nodes": [[["bn4e_branch2b", 0, 0, {}]]], "config": {"dtype": "float32", "activation": "relu", "trainable": true, "name": "activation_35"}, "name": "activation_35"}, {"class_name": "Conv2D", "inbound_nodes": [[["activation_35", 0, 0, {}]]], "config": {"kernel_initializer": {"class_name": "VarianceScaling", "config": {"dtype": "float32", "distribution": "truncated_normal", "scale": 2.0, "seed": null, "mode": "fan_in"}}, "name": "res4e_branch2c", "kernel_constraint": null, "bias_regularizer": null, "bias_constraint": null, "dtype": "float32", "activation": "linear", "trainable": true, "data_format": "channels_last", "padding": "valid", "strides": [1, 1], "dilation_rate": [1, 1], "kernel_regularizer": null, "filters": 1024, "bias_initializer": {"class_name": "Zeros", "config": {"dtype": "float32"}}, "use_bias": true, "activity_regularizer": null, "kernel_size": [1, 1]}, "name": "res4e_branch2c"}, {"class_name": "BatchNormalization", "inbound_nodes": [[["res4e_branch2c", 0, 0, {}]]], "config": {"gamma_initializer": {"class_name": "Ones", "config": {"dtype": "float32"}}, "moving_mean_initializer": {"class_name": "Zeros", "config": {"dtype": "float32"}}, "name": "bn4e_branch2c", "gamma_regularizer": null, "dtype": "float32", "trainable": true, "center": true, "moving_variance_initializer": {"class_name": "Ones", "config": {"dtype": "float32"}}, "beta_initializer": {"class_name": "Zeros", "config": {"dtype": "float32"}}, "scale": true, "epsilon": 0.001, "gamma_constraint": null, "beta_constraint": null, "beta_regularizer": null, "momentum": 0.99, "axis": [3]}, "name": "bn4e_branch2c"}, {"class_name": "Add", "inbound_nodes": [[["bn4e_branch2c", 0, 0, {}], ["activation_33", 0, 0, {}]]], "config": {"dtype": "float32", "trainable": true, "name": "add_11"}, "name": "add_11"}, {"class_name": "Activation", "inbound_nodes": [[["add_11", 0, 0, {}]]], "config": {"dtype": "float32", "activation": "relu", "trainable": true, "name": "activation_36"}, "name": "activation_36"}, {"class_name": "Conv2D", "inbound_nodes": [[["activation_36", 0, 0, {}]]], "config": {"kernel_initializer": {"class_name": "VarianceScaling", "config": {"dtype": "float32", "distribution": "truncated_normal", "scale": 2.0, "seed": null, "mode": "fan_in"}}, "name": "res4f_branch2a", "kernel_constraint": null, "bias_regularizer": null, "bias_constraint": null, "dtype": "float32", "activation": "linear", "trainable": true, "data_format": "channels_last", "padding": "valid", "strides": [1, 1], "dilation_rate": [1, 1], "kernel_regularizer": null, "filters": 256, "bias_initializer": {"class_name": "Zeros", "config": {"dtype": "float32"}}, "use_bias": true, "activity_regularizer": null, "kernel_size": [1, 1]}, "name": "res4f_branch2a"}, {"class_name": "BatchNormalization", "inbound_nodes": [[["res4f_branch2a", 0, 0, {}]]], "config": {"gamma_initializer": {"class_name": "Ones", "config": {"dtype": "float32"}}, "moving_mean_initializer": {"class_name": "Zeros", "config": {"dtype": "float32"}}, "name": "bn4f_branch2a", "gamma_regularizer": null, "dtype": "float32", "trainable": true, "center": true, "moving_variance_initializer": {"class_name": "Ones", "config": {"dtype": "float32"}}, "beta_initializer": {"class_name": "Zeros", "config": {"dtype": "float32"}}, "scale": true, "epsilon": 0.001, "gamma_constraint": null, "beta_constraint": null, "beta_regularizer": null, "momentum": 0.99, "axis": [3]}, "name": "bn4f_branch2a"}, {"class_name": "Activation", "inbound_nodes": [[["bn4f_branch2a", 0, 0, {}]]], "config": {"dtype": "float32", "activation": "relu", "trainable": true, "name": "activation_37"}, "name": "activation_37"}, {"class_name": "Conv2D", "inbound_nodes": [[["activation_37", 0, 0, {}]]], "config": {"kernel_initializer": {"class_name": "VarianceScaling", "config": {"dtype": "float32", "distribution": "truncated_normal", "scale": 2.0, "seed": null, "mode": "fan_in"}}, "name": "res4f_branch2b", "kernel_constraint": null, "bias_regularizer": null, "bias_constraint": null, "dtype": "float32", "activation": "linear", "trainable": true, "data_format": "channels_last", "padding": "same", "strides": [1, 1], "dilation_rate": [1, 1], "kernel_regularizer": null, "filters": 256, "bias_initializer": {"class_name": "Zeros", "config": {"dtype": "float32"}}, "use_bias": true, "activity_regularizer": null, "kernel_size": [3, 3]}, "name": "res4f_branch2b"}, {"class_name": "BatchNormalization", "inbound_nodes": [[["res4f_branch2b", 0, 0, {}]]], "config": {"gamma_initializer": {"class_name": "Ones", "config": {"dtype": "float32"}}, "moving_mean_initializer": {"class_name": "Zeros", "config": {"dtype": "float32"}}, "name": "bn4f_branch2b", "gamma_regularizer": null, "dtype": "float32", "trainable": true, "center": true, "moving_variance_initializer": {"class_name": "Ones", "config": {"dtype": "float32"}}, "beta_initializer": {"class_name": "Zeros", "config": {"dtype": "float32"}}, "scale": true, "epsilon": 0.001, "gamma_constraint": null, "beta_constraint": null, "beta_regularizer": null, "momentum": 0.99, "axis": [3]}, "name": "bn4f_branch2b"}, {"class_name": "Activation", "inbound_nodes": [[["bn4f_branch2b", 0, 0, {}]]], "config": {"dtype": "float32", "activation": "relu", "trainable": true, "name": "activation_38"}, "name": "activation_38"}, {"class_name": "Conv2D", "inbound_nodes": [[["activation_38", 0, 0, {}]]], "config": {"kernel_initializer": {"class_name": "VarianceScaling", "config": {"dtype": "float32", "distribution": "truncated_normal", "scale": 2.0, "seed": null, "mode": "fan_in"}}, "name": "res4f_branch2c", "kernel_constraint": null, "bias_regularizer": null, "bias_constraint": null, "dtype": "float32", "activation": "linear", "trainable": true, "data_format": "channels_last", "padding": "valid", "strides": [1, 1], "dilation_rate": [1, 1], "kernel_regularizer": null, "filters": 1024, "bias_initializer": {"class_name": "Zeros", "config": {"dtype": "float32"}}, "use_bias": true, "activity_regularizer": null, "kernel_size": [1, 1]}, "name": "res4f_branch2c"}, {"class_name": "BatchNormalization", "inbound_nodes": [[["res4f_branch2c", 0, 0, {}]]], "config": {"gamma_initializer": {"class_name": "Ones", "config": {"dtype": "float32"}}, "moving_mean_initializer": {"class_name": "Zeros", "config": {"dtype": "float32"}}, "name": "bn4f_branch2c", "gamma_regularizer": null, "dtype": "float32", "trainable": true, "center": true, "moving_variance_initializer": {"class_name": "Ones", "config": {"dtype": "float32"}}, "beta_initializer": {"class_name": "Zeros", "config": {"dtype": "float32"}}, "scale": true, "epsilon": 0.001, "gamma_constraint": null, "beta_constraint": null, "beta_regularizer": null, "momentum": 0.99, "axis": [3]}, "name": "bn4f_branch2c"}, {"class_name": "Add", "inbound_nodes": [[["bn4f_branch2c", 0, 0, {}], ["activation_36", 0, 0, {}]]], "config": {"dtype": "float32", "trainable": true, "name": "add_12"}, "name": "add_12"}, {"class_name": "Activation", "inbound_nodes": [[["add_12", 0, 0, {}]]], "config": {"dtype": "float32", "activation": "relu", "trainable": true, "name": "activation_39"}, "name": "activation_39"}, {"class_name": "Conv2D", "inbound_nodes": [[["activation_39", 0, 0, {}]]], "config": {"kernel_initializer": {"class_name": "VarianceScaling", "config": {"dtype": "float32", "distribution": "truncated_normal", "scale": 2.0, "seed": null, "mode": "fan_in"}}, "name": "res5a_branch2a", "kernel_constraint": null, "bias_regularizer": null, "bias_constraint": null, "dtype": "float32", "activation": "linear", "trainable": true, "data_format": "channels_last", "padding": "valid", "strides": [2, 2], "dilation_rate": [1, 1], "kernel_regularizer": null, "filters": 512, "bias_initializer": {"class_name": "Zeros", "config": {"dtype": "float32"}}, "use_bias": true, "activity_regularizer": null, "kernel_size": [1, 1]}, "name": "res5a_branch2a"}, {"class_name": "BatchNormalization", "inbound_nodes": [[["res5a_branch2a", 0, 0, {}]]], "config": {"gamma_initializer": {"class_name": "Ones", "config": {"dtype": "float32"}}, "moving_mean_initializer": {"class_name": "Zeros", "config": {"dtype": "float32"}}, "name": "bn5a_branch2a", "gamma_regularizer": null, "dtype": "float32", "trainable": true, "center": true, "moving_variance_initializer": {"class_name": "Ones", "config": {"dtype": "float32"}}, "beta_initializer": {"class_name": "Zeros", "config": {"dtype": "float32"}}, "scale": true, "epsilon": 0.001, "gamma_constraint": null, "beta_constraint": null, "beta_regularizer": null, "momentum": 0.99, "axis": [3]}, "name": "bn5a_branch2a"}, {"class_name": "Activation", "inbound_nodes": [[["bn5a_branch2a", 0, 0, {}]]], "config": {"dtype": "float32", "activation": "relu", "trainable": true, "name": "activation_40"}, "name": "activation_40"}, {"class_name": "Conv2D", "inbound_nodes": [[["activation_40", 0, 0, {}]]], "config": {"kernel_initializer": {"class_name": "VarianceScaling", "config": {"dtype": "float32", "distribution": "truncated_normal", "scale": 2.0, "seed": null, "mode": "fan_in"}}, "name": "res5a_branch2b", "kernel_constraint": null, "bias_regularizer": null, "bias_constraint": null, "dtype": "float32", "activation": "linear", "trainable": true, "data_format": "channels_last", "padding": "same", "strides": [1, 1], "dilation_rate": [1, 1], "kernel_regularizer": null, "filters": 512, "bias_initializer": {"class_name": "Zeros", "config": {"dtype": "float32"}}, "use_bias": true, "activity_regularizer": null, "kernel_size": [3, 3]}, "name": "res5a_branch2b"}, {"class_name": "BatchNormalization", "inbound_nodes": [[["res5a_branch2b", 0, 0, {}]]], "config": {"gamma_initializer": {"class_name": "Ones", "config": {"dtype": "float32"}}, "moving_mean_initializer": {"class_name": "Zeros", "config": {"dtype": "float32"}}, "name": "bn5a_branch2b", "gamma_regularizer": null, "dtype": "float32", "trainable": true, "center": true, "moving_variance_initializer": {"class_name": "Ones", "config": {"dtype": "float32"}}, "beta_initializer": {"class_name": "Zeros", "config": {"dtype": "float32"}}, "scale": true, "epsilon": 0.001, "gamma_constraint": null, "beta_constraint": null, "beta_regularizer": null, "momentum": 0.99, "axis": [3]}, "name": "bn5a_branch2b"}, {"class_name": "Activation", "inbound_nodes": [[["bn5a_branch2b", 0, 0, {}]]], "config": {"dtype": "float32", "activation": "relu", "trainable": true, "name": "activation_41"}, "name": "activation_41"}, {"class_name": "Conv2D", "inbound_nodes": [[["activation_41", 0, 0, {}]]], "config": {"kernel_initializer": {"class_name": "VarianceScaling", "config": {"dtype": "float32", "distribution": "truncated_normal", "scale": 2.0, "seed": null, "mode": "fan_in"}}, "name": "res5a_branch2c", "kernel_constraint": null, "bias_regularizer": null, "bias_constraint": null, "dtype": "float32", "activation": "linear", "trainable": true, "data_format": "channels_last", "padding": "valid", "strides": [1, 1], "dilation_rate": [1, 1], "kernel_regularizer": null, "filters": 2048, "bias_initializer": {"class_name": "Zeros", "config": {"dtype": "float32"}}, "use_bias": true, "activity_regularizer": null, "kernel_size": [1, 1]}, "name": "res5a_branch2c"}, {"class_name": "Conv2D", "inbound_nodes": [[["activation_39", 0, 0, {}]]], "config": {"kernel_initializer": {"class_name": "VarianceScaling", "config": {"dtype": "float32", "distribution": "truncated_normal", "scale": 2.0, "seed": null, "mode": "fan_in"}}, "name": "res5a_branch1", "kernel_constraint": null, "bias_regularizer": null, "bias_constraint": null, "dtype": "float32", "activation": "linear", "trainable": true, "data_format": "channels_last", "padding": "valid", "strides": [2, 2], "dilation_rate": [1, 1], "kernel_regularizer": null, "filters": 2048, "bias_initializer": {"class_name": "Zeros", "config": {"dtype": "float32"}}, "use_bias": true, "activity_regularizer": null, "kernel_size": [1, 1]}, "name": "res5a_branch1"}, {"class_name": "BatchNormalization", "inbound_nodes": [[["res5a_branch2c", 0, 0, {}]]], "config": {"gamma_initializer": {"class_name": "Ones", "config": {"dtype": "float32"}}, "moving_mean_initializer": {"class_name": "Zeros", "config": {"dtype": "float32"}}, "name": "bn5a_branch2c", "gamma_regularizer": null, "dtype": "float32", "trainable": true, "center": true, "moving_variance_initializer": {"class_name": "Ones", "config": {"dtype": "float32"}}, "beta_initializer": {"class_name": "Zeros", "config": {"dtype": "float32"}}, "scale": true, "epsilon": 0.001, "gamma_constraint": null, "beta_constraint": null, "beta_regularizer": null, "momentum": 0.99, "axis": [3]}, "name": "bn5a_branch2c"}, {"class_name": "BatchNormalization", "inbound_nodes": [[["res5a_branch1", 0, 0, {}]]], "config": {"gamma_initializer": {"class_name": "Ones", "config": {"dtype": "float32"}}, "moving_mean_initializer": {"class_name": "Zeros", "config": {"dtype": "float32"}}, "name": "bn5a_branch1", "gamma_regularizer": null, "dtype": "float32", "trainable": true, "center": true, "moving_variance_initializer": {"class_name": "Ones", "config": {"dtype": "float32"}}, "beta_initializer": {"class_name": "Zeros", "config": {"dtype": "float32"}}, "scale": true, "epsilon": 0.001, "gamma_constraint": null, "beta_constraint": null, "beta_regularizer": null, "momentum": 0.99, "axis": [3]}, "name": "bn5a_branch1"}, {"class_name": "Add", "inbound_nodes": [[["bn5a_branch2c", 0, 0, {}], ["bn5a_branch1", 0, 0, {}]]], "config": {"dtype": "float32", "trainable": true, "name": "add_13"}, "name": "add_13"}, {"class_name": "Activation", "inbound_nodes": [[["add_13", 0, 0, {}]]], "config": {"dtype": "float32", "activation": "relu", "trainable": true, "name": "activation_42"}, "name": "activation_42"}, {"class_name": "Conv2D", "inbound_nodes": [[["activation_42", 0, 0, {}]]], "config": {"kernel_initializer": {"class_name": "VarianceScaling", "config": {"dtype": "float32", "distribution": "truncated_normal", "scale": 2.0, "seed": null, "mode": "fan_in"}}, "name": "res5b_branch2a", "kernel_constraint": null, "bias_regularizer": null, "bias_constraint": null, "dtype": "float32", "activation": "linear", "trainable": true, "data_format": "channels_last", "padding": "valid", "strides": [1, 1], "dilation_rate": [1, 1], "kernel_regularizer": null, "filters": 512, "bias_initializer": {"class_name": "Zeros", "config": {"dtype": "float32"}}, "use_bias": true, "activity_regularizer": null, "kernel_size": [1, 1]}, "name": "res5b_branch2a"}, {"class_name": "BatchNormalization", "inbound_nodes": [[["res5b_branch2a", 0, 0, {}]]], "config": {"gamma_initializer": {"class_name": "Ones", "config": {"dtype": "float32"}}, "moving_mean_initializer": {"class_name": "Zeros", "config": {"dtype": "float32"}}, "name": "bn5b_branch2a", "gamma_regularizer": null, "dtype": "float32", "trainable": true, "center": true, "moving_variance_initializer": {"class_name": "Ones", "config": {"dtype": "float32"}}, "beta_initializer": {"class_name": "Zeros", "config": {"dtype": "float32"}}, "scale": true, "epsilon": 0.001, "gamma_constraint": null, "beta_constraint": null, "beta_regularizer": null, "momentum": 0.99, "axis": [3]}, "name": "bn5b_branch2a"}, {"class_name": "Activation", "inbound_nodes": [[["bn5b_branch2a", 0, 0, {}]]], "config": {"dtype": "float32", "activation": "relu", "trainable": true, "name": "activation_43"}, "name": "activation_43"}, {"class_name": "Conv2D", "inbound_nodes": [[["activation_43", 0, 0, {}]]], "config": {"kernel_initializer": {"class_name": "VarianceScaling", "config": {"dtype": "float32", "distribution": "truncated_normal", "scale": 2.0, "seed": null, "mode": "fan_in"}}, "name": "res5b_branch2b", "kernel_constraint": null, "bias_regularizer": null, "bias_constraint": null, "dtype": "float32", "activation": "linear", "trainable": true, "data_format": "channels_last", "padding": "same", "strides": [1, 1], "dilation_rate": [1, 1], "kernel_regularizer": null, "filters": 512, "bias_initializer": {"class_name": "Zeros", "config": {"dtype": "float32"}}, "use_bias": true, "activity_regularizer": null, "kernel_size": [3, 3]}, "name": "res5b_branch2b"}, {"class_name": "BatchNormalization", "inbound_nodes": [[["res5b_branch2b", 0, 0, {}]]], "config": {"gamma_initializer": {"class_name": "Ones", "config": {"dtype": "float32"}}, "moving_mean_initializer": {"class_name": "Zeros", "config": {"dtype": "float32"}}, "name": "bn5b_branch2b", "gamma_regularizer": null, "dtype": "float32", "trainable": true, "center": true, "moving_variance_initializer": {"class_name": "Ones", "config": {"dtype": "float32"}}, "beta_initializer": {"class_name": "Zeros", "config": {"dtype": "float32"}}, "scale": true, "epsilon": 0.001, "gamma_constraint": null, "beta_constraint": null, "beta_regularizer": null, "momentum": 0.99, "axis": [3]}, "name": "bn5b_branch2b"}, {"class_name": "Activation", "inbound_nodes": [[["bn5b_branch2b", 0, 0, {}]]], "config": {"dtype": "float32", "activation": "relu", "trainable": true, "name": "activation_44"}, "name": "activation_44"}, {"class_name": "Conv2D", "inbound_nodes": [[["activation_44", 0, 0, {}]]], "config": {"kernel_initializer": {"class_name": "VarianceScaling", "config": {"dtype": "float32", "distribution": "truncated_normal", "scale": 2.0, "seed": null, "mode": "fan_in"}}, "name": "res5b_branch2c", "kernel_constraint": null, "bias_regularizer": null, "bias_constraint": null, "dtype": "float32", "activation": "linear", "trainable": true, "data_format": "channels_last", "padding": "valid", "strides": [1, 1], "dilation_rate": [1, 1], "kernel_regularizer": null, "filters": 2048, "bias_initializer": {"class_name": "Zeros", "config": {"dtype": "float32"}}, "use_bias": true, "activity_regularizer": null, "kernel_size": [1, 1]}, "name": "res5b_branch2c"}, {"class_name": "BatchNormalization", "inbound_nodes": [[["res5b_branch2c", 0, 0, {}]]], "config": {"gamma_initializer": {"class_name": "Ones", "config": {"dtype": "float32"}}, "moving_mean_initializer": {"class_name": "Zeros", "config": {"dtype": "float32"}}, "name": "bn5b_branch2c", "gamma_regularizer": null, "dtype": "float32", "trainable": true, "center": true, "moving_variance_initializer": {"class_name": "Ones", "config": {"dtype": "float32"}}, "beta_initializer": {"class_name": "Zeros", "config": {"dtype": "float32"}}, "scale": true, "epsilon": 0.001, "gamma_constraint": null, "beta_constraint": null, "beta_regularizer": null, "momentum": 0.99, "axis": [3]}, "name": "bn5b_branch2c"}, {"class_name": "Add", "inbound_nodes": [[["bn5b_branch2c", 0, 0, {}], ["activation_42", 0, 0, {}]]], "config": {"dtype": "float32", "trainable": true, "name": "add_14"}, "name": "add_14"}, {"class_name": "Activation", "inbound_nodes": [[["add_14", 0, 0, {}]]], "config": {"dtype": "float32", "activation": "relu", "trainable": true, "name": "activation_45"}, "name": "activation_45"}, {"class_name": "Conv2D", "inbound_nodes": [[["activation_45", 0, 0, {}]]], "config": {"kernel_initializer": {"class_name": "VarianceScaling", "config": {"dtype": "float32", "distribution": "truncated_normal", "scale": 2.0, "seed": null, "mode": "fan_in"}}, "name": "res5c_branch2a", "kernel_constraint": null, "bias_regularizer": null, "bias_constraint": null, "dtype": "float32", "activation": "linear", "trainable": true, "data_format": "channels_last", "padding": "valid", "strides": [1, 1], "dilation_rate": [1, 1], "kernel_regularizer": null, "filters": 512, "bias_initializer": {"class_name": "Zeros", "config": {"dtype": "float32"}}, "use_bias": true, "activity_regularizer": null, "kernel_size": [1, 1]}, "name": "res5c_branch2a"}, {"class_name": "BatchNormalization", "inbound_nodes": [[["res5c_branch2a", 0, 0, {}]]], "config": {"gamma_initializer": {"class_name": "Ones", "config": {"dtype": "float32"}}, "moving_mean_initializer": {"class_name": "Zeros", "config": {"dtype": "float32"}}, "name": "bn5c_branch2a", "gamma_regularizer": null, "dtype": "float32", "trainable": true, "center": true, "moving_variance_initializer": {"class_name": "Ones", "config": {"dtype": "float32"}}, "beta_initializer": {"class_name": "Zeros", "config": {"dtype": "float32"}}, "scale": true, "epsilon": 0.001, "gamma_constraint": null, "beta_constraint": null, "beta_regularizer": null, "momentum": 0.99, "axis": [3]}, "name": "bn5c_branch2a"}, {"class_name": "Activation", "inbound_nodes": [[["bn5c_branch2a", 0, 0, {}]]], "config": {"dtype": "float32", "activation": "relu", "trainable": true, "name": "activation_46"}, "name": "activation_46"}, {"class_name": "Conv2D", "inbound_nodes": [[["activation_46", 0, 0, {}]]], "config": {"kernel_initializer": {"class_name": "VarianceScaling", "config": {"dtype": "float32", "distribution": "truncated_normal", "scale": 2.0, "seed": null, "mode": "fan_in"}}, "name": "res5c_branch2b", "kernel_constraint": null, "bias_regularizer": null, "bias_constraint": null, "dtype": "float32", "activation": "linear", "trainable": true, "data_format": "channels_last", "padding": "same", "strides": [1, 1], "dilation_rate": [1, 1], "kernel_regularizer": null, "filters": 512, "bias_initializer": {"class_name": "Zeros", "config": {"dtype": "float32"}}, "use_bias": true, "activity_regularizer": null, "kernel_size": [3, 3]}, "name": "res5c_branch2b"}, {"class_name": "BatchNormalization", "inbound_nodes": [[["res5c_branch2b", 0, 0, {}]]], "config": {"gamma_initializer": {"class_name": "Ones", "config": {"dtype": "float32"}}, "moving_mean_initializer": {"class_name": "Zeros", "config": {"dtype": "float32"}}, "name": "bn5c_branch2b", "gamma_regularizer": null, "dtype": "float32", "trainable": true, "center": true, "moving_variance_initializer": {"class_name": "Ones", "config": {"dtype": "float32"}}, "beta_initializer": {"class_name": "Zeros", "config": {"dtype": "float32"}}, "scale": true, "epsilon": 0.001, "gamma_constraint": null, "beta_constraint": null, "beta_regularizer": null, "momentum": 0.99, "axis": [3]}, "name": "bn5c_branch2b"}, {"class_name": "Activation", "inbound_nodes": [[["bn5c_branch2b", 0, 0, {}]]], "config": {"dtype": "float32", "activation": "relu", "trainable": true, "name": "activation_47"}, "name": "activation_47"}, {"class_name": "Conv2D", "inbound_nodes": [[["activation_47", 0, 0, {}]]], "config": {"kernel_initializer": {"class_name": "VarianceScaling", "config": {"dtype": "float32", "distribution": "truncated_normal", "scale": 2.0, "seed": null, "mode": "fan_in"}}, "name": "res5c_branch2c", "kernel_constraint": null, "bias_regularizer": null, "bias_constraint": null, "dtype": "float32", "activation": "linear", "trainable": true, "data_format": "channels_last", "padding": "valid", "strides": [1, 1], "dilation_rate": [1, 1], "kernel_regularizer": null, "filters": 2048, "bias_initializer": {"class_name": "Zeros", "config": {"dtype": "float32"}}, "use_bias": true, "activity_regularizer": null, "kernel_size": [1, 1]}, "name": "res5c_branch2c"}, {"class_name": "BatchNormalization", "inbound_nodes": [[["res5c_branch2c", 0, 0, {}]]], "config": {"gamma_initializer": {"class_name": "Ones", "config": {"dtype": "float32"}}, "moving_mean_initializer": {"class_name": "Zeros", "config": {"dtype": "float32"}}, "name": "bn5c_branch2c", "gamma_regularizer": null, "dtype": "float32", "trainable": true, "center": true, "moving_variance_initializer": {"class_name": "Ones", "config": {"dtype": "float32"}}, "beta_initializer": {"class_name": "Zeros", "config": {"dtype": "float32"}}, "scale": true, "epsilon": 0.001, "gamma_constraint": null, "beta_constraint": null, "beta_regularizer": null, "momentum": 0.99, "axis": [3]}, "name": "bn5c_branch2c"}, {"class_name": "Add", "inbound_nodes": [[["bn5c_branch2c", 0, 0, {}], ["activation_45", 0, 0, {}]]], "config": {"dtype": "float32", "trainable": true, "name": "add_15"}, "name": "add_15"}, {"class_name": "Activation", "inbound_nodes": [[["add_15", 0, 0, {}]]], "config": {"dtype": "float32", "activation": "relu", "trainable": true, "name": "activation_48"}, "name": "activation_48"}, {"class_name": "GlobalAveragePooling2D", "inbound_nodes": [[["activation_48", 0, 0, {}]]], "config": {"dtype": "float32", "trainable": true, "name": "global_average_pooling2d", "data_format": "channels_last"}, "name": "global_average_pooling2d"}], "input_layers": [["input_1", 0, 0]], "name": "resnet50", "output_layers": [["global_average_pooling2d", 0, 0]]}}, {"class_name": "Dense", "config": {"kernel_initializer": {"class_name": "GlorotUniform", "config": {"dtype": "float32", "seed": null}}, "name": "dense", "kernel_constraint": null, "bias_regularizer": null, "bias_constraint": null, "dtype": "float32", "activation": "softmax", "trainable": true, "kernel_regularizer": null, "bias_initializer": {"class_name": "Zeros", "config": {"dtype": "float32"}}, "units": 2, "use_bias": true, "activity_regularizer": null}}], "name": "sequential"}, "backend": "tensorflow"}